best_cnn_adam.pth (torch, 224417 bytes, 10 tensors)

weight f4 [8, 3, 3, 3]
000000 48 83 aa bd cc 88 39 3e 1d 95 38 3d 15 97 bd 3d
       -0.08325821 0.1811859 0.04506408 0.09257332
000010 b3 41 5f 3d 98 95 ea 3d d3 74 86 3d 5d b1 3f bb
       0.054506015 0.11454314 0.06565251 -0.0029250004
000020 d5 5f 25 3e 59 cd 3f be 92 70 90 be f5 d2 57 be
       0.16149838 -0.18730678 -0.28210884 -0.21076567
000030 63 02 03 3e d9 58 2a bc 3a b5 d8 bc 7a ad b7 bd
       0.12793879 -0.0103971595 -0.026453603 -0.08968635
000040 7b 68 dd 3d e3 24 d9 3d c5 eb a7 bd cd 63 3e 3d
       0.10810944 0.10602739 -0.08199266 0.046481896
000050 4e 86 3d 3e 81 79 a8 3d 32 4c 23 bd a7 e7 17 3e
       0.18508264 0.082263 -0.039867587 0.14834462
000060 e1 46 dd bd 4d 4e ce 3d be e8 73 3d c7 77 42 3e
       -0.10804535 0.100735284 0.059548132 0.18991004
000070 0c bb 60 3d 9c 82 e3 39 d4 30 10 bb a4 d9 29 3e
       0.05486588 0.00043394126 -0.002200176 0.1658693
000080 dc dd 20 3e 30 7a 60 bd 14 ec 2e 3e aa 20 09 be
       0.15709633 -0.054804027 0.17082244 -0.13391367
000090 e6 04 9a 3d 66 d1 c1 3d 53 d0 57 3d 45 80 0d 3d
       0.075204656 0.09463768 0.052688908 0.034546155
0000a0 b7 76 cc bd b7 7f 17 be ba dd e1 3d 6c 78 b5 bd
       -0.099835806 -0.14794813 0.11028619 -0.08860859
0000b0 d9 a3 87 bd 9e 08 a9 3c 20 fe 53 3d 4b aa 2d be
       -0.06623048 0.020633992 0.051756024 -0.16959493
0000c0 f2 cb 30 bc 08 d9 df bd 49 8e bc bd 91 a9 1a 3e
       -0.010790812 -0.10930067 -0.09206826 0.15103747
0000d0 0a 73 be bc da f1 c3 3b ad c4 c6 bd 83 1c 19 3d
       -0.023248214 0.0059797587 -0.09705482 0.037380707
0000e0 97 5f 6b bd b9 c1 a0 3d f9 2d 01 be 9c 93 7b 3c
       -0.05746421 0.0784945 -0.12615193 0.015355017
0000f0 0f c7 0e 3d 7b e6 36 bd 40 50 86 bd f9 14 8c 3d
       0.034857806 -0.044653397 -0.06558275 0.06839938
000100 0d 39 ed 3d 5b c9 25 3e 62 3d 96 bd f2 15 ec bd
       0.11583147 0.16190092 -0.073359266 -0.11527623
000110 6e e4 ab bd b7 c0 d6 3d 0c 54 41 3e a6 bb 8a 3e
       -0.08393179 0.10485976 0.18879718 0.2709629
000120 cf 58 88 3d 4f bd 1e 3e 5b 37 c7 bd b5 42 38 3d
       0.06657564 0.15501903 -0.09727355 0.04498549
000130 97 4d 27 bd 3e c2 62 bb 5b 26 49 3e 59 ef be bd
       -0.04084548 -0.003460064 0.19643538 -0.09322996
000140 13 6a bc bd 8c 3b 46 3c f1 0b 6a bd 50 c3 5b bd
       -0.091999196 0.012099158 -0.057140294 -0.05365306
000150 54 90 26 3e 55 6f 1e 3e d7 86 41 3e 79 e9 14 bb
       0.16265994 0.15472157 0.18899094 -0.0022722168
000160 cb 03 33 3e d3 eb b6 3d 22 08 5b 3e 5e f1 9b 3e
       0.17481916 0.08931699 0.21389821 0.30457586
000170 e0 35 9f 3e 41 b2 47 be af 04 98 ba 51 b3 5f 3d
       0.3109579 -0.19501592 -0.0011598076 0.05461437
000180 8d 99 32 bd 49 4b 0e 3e f4 52 75 3e b3 56 87 3c
       -0.04360347 0.13895907 0.23957425 0.016520834
000190 88 5f a0 3c c1 92 0a 3e 31 a6 c1 bc c1 6c 3c 3d
       0.019576803 0.13532545 -0.023638817 0.046002153
0001a0 ab 7e 24 3e d4 f1 55 3d 1c 25 78 3d b0 74 25 3e
       0.16063945 0.05223258 0.060582265 0.16157794
0001b0 af 0b 6d 3d c3 d2 66 3d a3 39 09 be f3 5a 8d 3d
       0.05787247 0.05635334 -0.13400893 0.06902113
0001c0 df 4a 12 3c f3 23 fe bc c3 e1 b7 bd d2 cf 62 3d
       0.0089289835 -0.031023001 -0.089786075 0.055373974
0001d0 02 a3 93 3d 7f 37 98 bd 2f f7 b1 bc f6 56 57 3c
       0.07208826 -0.0743246 -0.021724312 0.013143292
0001e0 f0 4a ca 3c e2 4d 31 bd bb ec 1c bd 7d fa 22 be
       0.024693936 -0.043287165 -0.0383117 -0.15915866
0001f0 8f a4 1e be 85 30 ee bb ce 75 07 bd fb a4 62 3d
       -0.15492462 -0.0072689676 -0.03307133 0.05533312
000200 3c b8 03 bd ac d8 96 bd 47 a6 03 3e 5b 79 c5 3b
       -0.03215812 -0.07365546 0.12856399 0.0060264296
000210 f2 68 0e bd 17 7c 27 3c 58 29 1f 3d 10 73 96 3c
       -0.034768052 0.010222456 0.038857788 0.018365413
000220 02 62 ea bc 3a 2a 34 3e c4 65 21 3e 76 50 16 3e
       -0.028611187 0.17594233 0.15761477 0.14679131
000230 1b ad 8a 3d c3 14 7d bd 5a 2c 34 be 60 fb bd bd
       0.067712985 -0.061787378 -0.17595044 -0.092764616
000240 6b 65 3f be ee ed 2c 3e de e5 25 be fc 43 89 3d
       -0.18691032 0.16887638 -0.16200969 0.0670242
000250 e2 d1 e7 bd d1 a8 ff 3b 22 e0 75 3d 37 e7 2f 3d
       -0.11319329 0.007802107 0.060028203 0.042945113
000260 c1 14 df 3c d7 df fb bd 87 c8 df bb 61 f5 15 3e
       0.027231576 -0.122985534 -0.0068293246 0.14644386
000270 be d7 35 bd 40 0d a3 3d be b0 e6 bd 45 7f 11 be
       -0.0443952 0.079615116 -0.1126418 -0.14208706
000280 aa 5f 2f 3e 1c a6 00 be e3 15 3b bd a9 32 e7 3d
       0.17126337 -0.12563366 -0.04567517 0.112889595
000290 43 2f 8d 3d ba 63 4d bd 0d 40 db bd cf 77 96 3c
       0.0689378 -0.050143935 -0.10705576 0.018367676
0002a0 91 b4 5c bd 6f 93 9d 3d 9d 9e 9f 3d dd d4 d2 3d
       -0.05388314 0.07694136 0.07793925 0.10294507
0002b0 9c 03 45 3e bd b7 e7 3d 7c 94 b6 bb 0d 97 0c be
       0.19239658 0.11314342 -0.0055719 -0.13729496
0002c0 3e 20 be bd 83 8b dd bc 2b 19 cf bd aa d0 4c 3d
       -0.092834935 -0.027044063 -0.10112222 0.050003685
0002d0 d2 92 93 bd 5b 93 d5 bd 3a 7c 47 3e 20 5d 1b 3d
       -0.07205738 -0.104284965 0.19480982 0.037930608
0002e0 ae 47 81 3d f7 97 1d bd 27 20 40 bd 5a a4 ff bd
       0.063125 -0.038475003 -0.046905663 -0.124825194
0002f0 05 1f 0e 3e 01 0b 53 3d ad 4c 63 bd c3 a0 1d 3e
       0.1387902 0.051524166 -0.055493046 0.15393357
000300 41 91 19 bd 6d c3 02 be 4f 52 09 be ae ea 58 3b
       -0.03749204 -0.12769862 -0.13410304 0.0033098864
000310 ff 69 0b 3b 06 7c bb 3d d7 ea a6 3d 86 59 e1 3a
       0.0021272895 0.09154515 0.08150261 0.0017192818
000320 00 67 c2 bc 20 e8 12 3e 5c 2f 9f 3d f0 48 8f bd
       -0.023730755 0.14346361 0.07772705 -0.069963336
000330 0f 3d c1 3d e6 b0 1a 3d 8a cd 16 be dc 3d f2 3d
       0.09435474 0.03776636 -0.14726844 0.11828205
000340 e5 46 b2 bd 13 53 69 bd 5a dc 33 be 24 0e 46 3e
       -0.08704928 -0.05696399 -0.17564526 0.19341332
000350 38 90 25 3d 11 0f df 3c 85 a4 43 3e 1c 00 55 3e
       0.04042074 0.027228864 0.19105728 0.20800823

bias f4 [8]
000000 ad 22 4c 3e 03 a1 16 be 75 4a 6e bd 21 5b 4e 3d
       0.19935103 -0.14709859 -0.058176477 0.050379876
000010 f5 83 1d 3e 2f 3e bc 3d 65 cd 22 3c 7a d3 28 be
       0.15382369 0.09191548 0.009936665 -0.16486922

weight f4 [16, 8, 3, 3]
000000 d9 71 90 bb f6 aa d9 3d 56 bd b7 3c 9c 27 c3 bd
       -0.004408103 0.10628311 0.02242915 -0.09529039
000010 34 98 65 3d 4a d7 66 3d 1b 9e 67 3c 7a af 41 bd
       0.056053355 0.05635766 0.014136816 -0.047286488
000020 3a e1 09 3d 65 17 db bd 86 e6 4c bd 86 e4 69 bd
       0.03366206 -0.106978215 -0.05002453 -0.057102703
000030 ba e4 1e 3d 7a a8 e7 bc 7d 5d 51 3d 25 56 79 bd
       0.03879235 -0.028278578 0.051114548 -0.06087317
000040 d6 03 21 3d a8 2f 87 3d 80 b7 8c bd 6b a0 86 3d
       0.0393103 0.066008866 -0.06870937 0.06573566
000050 37 55 5f bd 85 cb f9 3c 56 1c 58 bd 69 38 04 3d
       -0.054524627 0.030492553 -0.0527614 0.03228036
000060 6d 13 16 bd 36 2f 5a bd b5 73 43 bc 2e bd 8d 3b
       -0.03663962 -0.05326768 -0.011929442 0.0043255305
000070 a4 e0 9a bd 77 33 08 bd a8 56 0f 3b 19 ed b8 bc
       -0.07562378 -0.033252206 0.002187172 -0.022573994
000080 e4 a4 65 ba 53 10 da bb 7e a8 a9 3c 9c bd 74 3c
       -0.00087602274 -0.006654778 0.020710226 0.0149377845
000090 62 3f 87 3d 3a e4 9d 3d 09 bd 1b 3e 62 7d ed 3d
       0.06603886 0.077095464 0.1520883 0.115961805
0000a0 53 25 58 bc 80 75 a4 3d c2 1f 0f 3d 67 6f c6 3d
       -0.013192493 0.08030224 0.034942396 0.09689217
0000b0 ee bf b6 3d b3 b1 89 3d c6 22 45 3d fa b4 0f be
       0.089233264 0.067233466 0.048128866 -0.14033881
0000c0 5b 25 9c bd 70 aa 12 bb 47 5e 51 bc e4 81 ed bd
       -0.076243125 -0.002237942 -0.012778825 -0.1159704
0000d0 7e b7 36 bc 94 ed 03 bd 0d 09 ad 3c 29 85 5f 3d
       -0.011152146 -0.032208994 0.02112248 0.05457035
0000e0 4b 26 61 bc db 25 34 bd c2 9d 54 3d 11 19 27 bd
       -0.01374204 -0.043981414 0.051908262 -0.04079539
0000f0 e5 2a e7 bd fc 44 bd 3a 97 57 40 bd f8 7c d8 bc
       -0.11287478 0.0014440115 -0.046958532 -0.026426777
000100 5c 8d 95 bb da 1e ce 3d 95 59 3c bd 75 56 f3 3d
       -0.0045639705 0.10064478 -0.04598387 0.11881725
000110 fc f5 a6 3c 3b 3c 0a 3d 99 bb d5 3d 42 1a f9 3c
       0.020380966 0.033748847 0.10436172 0.030408029
000120 2a f1 59 bd 9b 57 a4 bc 3c 7a fd bd c6 a3 4f bd
       -0.053208508 -0.020061305 -0.1237683 -0.050693296
000130 df 05 a7 3d 8a 05 84 3d 1d 17 b5 3d ed 95 07 bc
       0.08155417 0.06446369 0.08842299 -0.008275491
000140 2a 9b 92 3d 37 ad b6 bd 01 27 ee bc 6a ee ec bc
       0.071585014 -0.08919757 -0.029071333 -0.028922278
000150 89 b6 5d bd 8e 45 8a bd 9a ca 15 bd 80 6a 10 bd
       -0.054129157 -0.06751548 -0.03657017 -0.035257816
000160 06 db c4 bc 34 68 3b bd 79 b7 b3 3a b2 91 e8 bc
       -0.02403022 -0.045753673 0.0013711295 -0.028389785
000170 9a fc 3f bc 3a 97 ce bd 38 eb 0f be cb 7e 26 bd
       -0.01171794 -0.10087438 -0.14054573 -0.040648263
000180 cf d9 ed 3d 33 46 f3 3d 24 e5 9e 3d 59 be a8 3d
       0.11613809 0.11878624 0.07758549 0.08239431
000190 d2 c0 9f bd eb a9 ae 3d c0 e4 6f bd 5f 7d 81 bb
       -0.078004494 0.08528503 -0.058567762 -0.003951713
0001a0 14 e1 47 3d d8 84 4e bc f1 15 9f 3d 8d 33 3a 3d
       0.048798636 -0.012604915 0.07767857 0.04545932
0001b0 4a 94 b6 3b 0e 23 7a 3d 0d d0 87 3c 7f 3f 8c 3d
       0.0055718767 0.061068587 0.016578699 0.068480484
0001c0 94 9c 3b 3d 3b 91 3e 3d 34 eb fc bc ec 54 08 bd
       0.04580362 0.04652522 -0.030873872 -0.033284113
0001d0 7a 26 60 3b 7e b2 d5 bd 8b a6 04 be f6 b3 8e bd
       0.0034202621 -0.10434435 -0.12954156 -0.069679186
0001e0 9c ab 31 3d a1 bb 7b 3d 3b 72 09 bd 67 39 0d bd
       0.04337655 0.061458234 -0.033556204 -0.03447857
0001f0 24 4b 28 bd 54 73 55 3c 8a 3e 30 3c 38 15 05 3e
       -0.041087285 0.013027985 0.010757098 0.12996376
000200 26 ac df 3d 5f fe c9 3d 0f 87 ef bc d5 b5 c9 3d
       0.109215066 0.098629706 -0.029239206 0.09849135
000210 9b b7 99 3b 56 10 c2 bc a5 1c 07 3b 6a e6 fc 3d
       0.004691077 -0.02368943 0.0020616439 0.123486355
000220 a8 38 c0 bd 4c 88 bd bd 21 4c 64 3d 8f c8 ff 3b
       -0.09385806 -0.09254512 0.055736665 0.007805891
000230 4f ce 4e 3d 92 b1 ba 3b 01 fa cd 3d 39 28 e5 3b
       0.05048972 0.0056974376 0.1005745 0.0069933203
000240 f6 f9 dc 3d 5c 60 6c 3d d1 87 fc 3d 33 1c 4f 3d
       0.10789864 0.057709083 0.123305924 0.050564002
000250 55 12 ba 3d a2 c9 8f 3d d4 d2 b6 3c 23 6b be 3d
       0.09085528 0.0702088 0.022317328 0.092977785
000260 d3 c1 12 3d 3f 9b ed bd b5 da 36 bc c2 98 14 be
       0.035829376 -0.116018765 -0.011160542 -0.14511397
000270 d8 50 90 3d 6d 1c a7 3c 27 f9 ca 3d 8a 8f 62 bd
       0.0704667 0.020399297 0.09910803 -0.05531267
000280 43 7c 8a 3d c6 f6 ae bd 29 c3 02 be 7c c2 3a bd
       0.06761982 -0.08543162 -0.1276976 -0.04559563
000290 fc 0f 8e bb 0f b3 8b 3b ba f0 59 3d e0 de 0b 3d
       -0.0043354016 0.004263289 0.05320809 0.034148097
0002a0 74 00 a4 bd ab 01 5f bd c8 33 46 bc 88 63 a2 bd
       -0.08007899 -0.05444495 -0.012097307 -0.0792914
0002b0 6c f3 9d bd b2 ff aa bd 78 3e b6 3d 5f 25 b9 bc
       -0.07712445 -0.08349551 0.08898634 -0.022600828
0002c0 0b 06 2f bd 22 ef ab bd 80 26 3f bd 78 b3 8f 3d
       -0.042730372 -0.0839522 -0.046667576 0.07016653
0002d0 0b af a0 3d 0e 89 52 3d 3c a8 65 bc 56 6c ff 3b
       0.07845887 0.051400237 -0.014017161 0.007794897
0002e0 50 4b fa ba 4d b8 3e 3c f6 1b 65 3d a8 41 de 3c
       -0.0019095931 0.01164062 0.05593487 0.027130917
0002f0 5b 6c f2 bc 3e 0a 9c 3d e4 2f 2a 3d a5 51 86 3d
       -0.029592684 0.07619141 0.04154958 0.06558541
000300 42 4a ad bc 34 fa b1 3c b7 c2 59 bd 99 8b 0b 3d
       -0.021153573 0.021725751 -0.05316421 0.034068678
000310 e3 1b 76 3d 48 ae 92 3d 23 3b 9c 3b f4 ee 53 3d
       0.06008519 0.07162148 0.004767792 0.051741555
000320 20 9e 04 be 31 f4 8f bd d7 0d 3c bd 53 06 30 3d
       -0.12950945 -0.07028998 -0.045911636 0.04297478
000330 fe 08 2f bd 3d 08 e5 3d 8a fd b2 3d 2c 58 28 bd
       -0.042733185 0.11183212 0.08739765 -0.041099712
000340 3f 44 93 3d 68 a2 f2 bc ac 3f 88 3d 33 15 c1 bd
       0.07190751 -0.029618457 0.066527694 -0.094278716
000350 e0 5e ae bc 61 6f c0 3d 5f b3 b3 bd cb 7a 93 bd
       -0.021285474 0.09396244 -0.08774447 -0.07201155
000360 18 24 0d bc 32 32 1e 3d 99 6b b9 3c 5e b8 a1 bc
       -0.008614562 0.03862209 0.022634314 -0.019741233
000370 0e 0a 0a bd e8 22 b4 bd 9f 4b 22 3d 39 34 51 3c
       -0.033700995 -0.0879572 0.0396229 0.0127687985
000380 e8 c3 97 3c 2b fe f2 3b e7 83 ae bb 4e 3c 2f bc
       0.018526033 0.007415553 -0.0053257826 -0.01069553
000390 a7 0c 4e bd 6e 8e 94 bd 89 dd d4 bd 93 e9 0c bd
       -0.050305035 -0.07253729 -0.10393817 -0.03440244
0003a0 11 3e b6 3c 16 a0 98 bc 83 a2 82 bc 15 a7 f2 bc
       0.022246392 -0.018631022 -0.015946632 -0.029620687
0003b0 a6 79 64 bd a6 44 88 bc 44 53 f4 bc dd f2 da 3d
       -0.055780075 -0.016634297 -0.02982486 0.10690854
0003c0 cf 1a 19 3d 9c a0 25 bd 4d c1 60 3c 3a 2b 8a bc
       0.037379082 -0.040436372 0.0137179615 -0.016866315
0003d0 68 39 83 bd 07 13 92 bd 20 ac 3f bd 1d 49 00 3d
       -0.06407434 -0.071325354 -0.04679501 0.031319726
0003e0 80 ca ba 3d c2 91 b1 3d a7 55 8c bd 86 00 74 3d
       0.09120655 0.08670379 -0.068522744 0.05957081
0003f0 44 29 7b ba 94 fa 28 3c e1 93 ea 3d 62 6d cb 3c
       -0.0009581039 0.010313649 0.11453987 0.024832431

bias f4 [16]
000000 8f c6 bd 3d fa 41 88 3d 9f f3 e3 3d 10 38 05 3d
       0.09266388 0.06653209 0.111304514 0.03252417
000010 27 0a c7 bd 6e 33 00 80 a3 aa 48 3c 61 92 e4 bc
       -0.09718733 -1.845e-41 0.012247714 -0.02790183
000020 fb ec 93 3b 3c 98 e9 3d d3 30 ce bd c4 7b 8f bd
       0.0045143343 0.114059895 -0.10067906 -0.07006028
000030 93 28 d2 3d b7 71 86 3d 4d 76 d8 3d 29 d5 b5 bd
       0.10261645 0.06564658 0.10569439 -0.08878548

weight f4 [32, 16, 5, 5]
000000 be 02 00 80 f5 21 00 00 36 0f 00 00 dd 27 00 00
       -9.84e-43 1.2181e-41 5.457e-42 1.43e-41
000010 f6 1f 00 80 eb 0f 00 80 80 16 00 80 b2 1c 00 00
       -1.1465e-41 -5.71e-42 -8.071e-42 1.0294e-41
000020 95 10 00 80 ca 25 00 00 c1 1a 00 00 b6 28 00 80
       -5.949e-42 1.3556e-41 9.597e-42 -1.4604e-41
000030 9d 1b 00 00 87 04 00 80 74 07 00 80 fb 2f 00 00
       9.906e-42 -1.624e-42 -2.674e-42 1.7212e-41
000040 6d 14 00 00 a2 0f 00 80 a9 2f 00 00 cb 2e 00 00
       7.327e-42 -5.608e-42 1.7097e-41 1.6786e-41
000050 1a 32 00 80 16 1d 00 00 4a 28 00 00 4d 24 00 00
       -1.7973e-41 1.0434e-41 1.4453e-41 1.3022e-41
000060 8a 02 00 80 e1 35 f3 82 28 ef 58 01 57 68 56 01
       -9.11e-43 -3.5736566e-37 3.984452e-38 3.9380453e-38
000070 44 00 1b 80 15 ab 30 80 05 20 54 00 3e 50 1a 80
       -2.479654e-39 -4.469476e-39 7.725668e-39 -2.416508e-39
000080 f8 86 12 80 8e 60 08 80 c3 7d 07 00 9a 37 c4 83
       -1.701457e-39 -7.69321e-40 6.87963e-40 -1.153261e-36
000090 b4 c8 06 04 40 6b ab 03 fe 34 d0 82 d6 4d e1 82
       1.5843783e-36 1.00751e-36 -3.059327e-37 -3.3105454e-37
0000a0 71 c8 91 86 fe 90 54 86 75 59 02 85 02 b2 ab 03
       -5.483746e-35 -3.9979292e-35 -6.129001e-36 1.0091345e-36
0000b0 0f 1e 2a 01 ea 43 ee 84 31 27 a6 04 9e 78 f7 83
       3.1245635e-38 -5.60159e-36 3.9062404e-36 -1.4545048e-36
0000c0 c2 e7 7a 04 fb 15 a6 04 9e 28 00 80 f3 31 00 80
       2.9493777e-36 3.90466e-36 -1.4571e-41 -1.7918e-41
0000d0 ac 35 00 80 1b 38 00 00 cd 03 00 80 09 30 00 80
       -1.9254e-41 2.0127e-41 -1.363e-42 -1.7232e-41
0000e0 79 32 00 00 f5 06 00 80 0c 2a 00 00 71 31 00 80
       1.8106e-41 -2.496e-42 1.5084e-41 -1.7736e-41
0000f0 66 03 00 80 3b 06 00 00 9d 0c 00 00 30 08 00 00
       -1.219e-42 2.235e-42 4.525e-42 2.937e-42
000100 d9 24 00 80 78 2b 00 80 df 28 00 80 71 3b 00 00
       -1.3218e-41 -1.5594e-41 -1.4662e-41 2.1324e-41
000110 54 1f 00 00 cb 39 00 00 ec 1d 00 00 f5 31 00 00
       1.1238e-41 2.0732e-41 1.0734e-41 1.7921e-41
000120 e8 0e 00 00 b9 30 00 00 42 02 00 80 72 0f 00 80
       5.347e-42 1.7478e-41 -8.1e-43 -5.541e-42
000130 6c 26 00 00 42 0c 00 00 26 2b 00 00 1c 1e 00 00
       1.3783e-41 4.397e-42 1.5479e-41 1.0801e-41
000140 0b 24 00 00 6f 2a 00 80 10 22 00 80 63 19 00 80
       1.293e-41 -1.5222e-41 -1.222e-41 -9.107e-42
000150 a4 0b 00 00 af 0d 00 80 fd 06 00 80 de 27 00 80
       4.176e-42 -4.909e-42 -2.507e-42 -1.4302e-41
000160 88 26 00 80 6e 24 00 00 7e 12 00 80 53 22 00 80
       -1.3822e-41 1.3069e-41 -6.634e-42 -1.2313e-41
000170 42 06 00 00 ee 22 00 00 48 06 00 00 3f 18 00 80
       2.245e-42 1.253e-41 2.253e-42 -8.698e-42
000180 af 1d 00 80 c7 1b 00 00 8a 25 00 00 f6 0f 00 80
       -1.0648e-41 9.965e-42 1.3466e-41 -5.726e-42
000190 49 10 00 80 b0 27 00 80 e2 31 00 80 a8 1d 00 00
       -5.842e-42 -1.4237e-41 -1.7895e-41 1.0639e-41
0001a0 40 22 00 00 15 19 00 00 60 2a 00 00 74 2f 00 00
       1.2287e-41 8.998e-42 1.5201e-41 1.7023e-41
0001b0 15 16 00 80 67 09 00 80 a0 38 00 80 f5 33 00 80
       -7.922e-42 -3.373e-42 -2.0313e-41 -1.8639e-41
0001c0 a9 27 00 00 7f 35 00 00 59 05 00 80 20 1d 00 80
       1.4227e-41 1.9191e-41 -1.918e-42 -1.0448e-41
0001d0 cf 21 00 00 ba 00 00 00 ca 03 00 00 de 07 00 00
       1.2128e-41 2.6e-43 1.359e-42 2.822e-42
0001e0 a8 1a 00 00 88 0e 00 80 cc 15 00 80 43 08 00 80
       9.562e-42 -5.213e-42 -7.819e-42 -2.964e-42
0001f0 fa 26 00 00 9e 12 00 80 9e 12 00 80 9e 12 00 80
       1.3982e-41 -6.679e-42 -6.679e-42 -6.679e-42
000200 9e 12 00 80 9e 12 00 80 9e 12 00 80 9e 12 00 80
       -6.679e-42 -6.679e-42 -6.679e-42 -6.679e-42
000210 9e 12 00 80 9e 12 00 80 9e 12 00 80 9e 12 00 80
       -6.679e-42 -6.679e-42 -6.679e-42 -6.679e-42
000220 9e 12 00 80 9e 12 00 80 9e 12 00 80 9e 12 00 80
       -6.679e-42 -6.679e-42 -6.679e-42 -6.679e-42
000230 9e 12 00 80 9e 12 00 80 9e 12 00 80 9e 12 00 80
       -6.679e-42 -6.679e-42 -6.679e-42 -6.679e-42
000240 9e 12 00 80 9e 12 00 80 9e 12 00 80 9e 12 00 80
       -6.679e-42 -6.679e-42 -6.679e-42 -6.679e-42
000250 9e 12 00 80 9e 12 00 80 c3 0b 00 80 eb 1d 00 80
       -6.679e-42 -6.679e-42 -4.22e-42 -1.0733e-41
000260 30 09 00 80 e6 0a 00 00 bd 31 00 00 d4 0b 00 80
       -3.296e-42 3.91e-42 1.7843e-41 -4.243e-42
000270 2b 21 00 00 08 2d 00 80 17 08 00 00 fa 0d 00 80
       1.1898e-41 -1.6154e-41 2.902e-42 -5.014e-42
000280 33 1e 00 00 e7 1f 00 80 79 05 00 80 b0 26 00 00
       1.0833e-41 -1.1444e-41 -1.963e-42 1.3878e-41
000290 ac 04 00 80 57 34 00 80 af 15 00 80 6d 06 00 80
       -1.676e-42 -1.8776e-41 -7.779e-42 -2.305e-42
0002a0 23 20 00 00 d6 25 00 80 11 19 00 80 a5 29 00 00
       1.1528e-41 -1.3573e-41 -8.992e-42 1.4939e-41
0002b0 bb 15 00 00 34 08 00 80 5e 26 00 00 5d 9a c4 a9
       7.795e-42 -2.943e-42 1.3764e-41 -8.730926e-14
0002c0 b7 18 5c a9 f5 59 04 a9 7d 70 9a a8 8c 6c 33 a8
       -4.887125e-14 -2.9387913e-14 -1.7146219e-14 -9.960033e-15
0002d0 f5 d0 1f a7 3e f2 fc a6 11 b4 21 a7 ba 96 ad a6
       -2.2178958e-15 -1.7551673e-15 -2.2440853e-15 -1.2045141e-15
0002e0 66 91 50 a6 d5 21 6a a9 ca ff 2f a9 80 7c a7 a8
       -7.236155e-16 -5.1987782e-14 -3.9079668e-14 -1.8594718e-14
0002f0 63 27 f1 a8 4f e6 35 a8 b7 cc e2 a8 0a b9 a8 a8
       -2.6773456e-14 -1.0097459e-14 -2.5179821e-14 -1.8731995e-14
000300 9c 16 8e a8 e6 3b 61 a8 ab ad 61 a8 8e 54 cf a6
       -1.5774972e-14 -1.25029974e-14 -1.2527667e-14 -1.4386429e-15
000310 fb 37 d0 a6 70 36 0e a7 ca a0 ad a6 35 81 8b a6
       -1.4448073e-15 -1.973597e-15 -1.2047868e-15 -9.680084e-16
000320 7d ab 01 80 5a dc 00 80 45 26 00 80 03 03 00 80
       -1.53354e-40 -7.9047e-41 -1.3729e-41 -1.08e-42
000330 0b ba 01 80 54 0e 00 00 c5 16 00 80 2e 1f 00 00
       -1.58575e-40 5.14e-42 -8.168e-42 1.1185e-41
000340 a3 0d 00 00 8c 01 00 00 33 c1 00 00 34 96 09 00
       4.892e-42 5.55e-43 6.9307e-41 8.80402e-40
000350 32 f4 01 80 37 e0 01 80 6e 54 01 80 d9 9d 3b 82
       -1.79436e-40 -1.72269e-40 -1.22123e-40 -1.378389e-37
000360 29 a1 30 01 02 7c 56 01 ef d3 b5 00 49 13 29 80
       3.244172e-38 3.9394564e-38 1.6698252e-38 -3.772174e-39
000370 2e 1d 00 00 af 12 00 80 2b 14 00 80 45 07 00 80
       1.0468e-41 -6.702e-42 -7.235e-42 -2.608e-42
000380 53 01 00 00 b2 2f f7 14 dd 2c b4 14 c7 b6 da 14
       4.75e-43 2.4959439e-26 1.819305e-26 2.2084468e-26
000390 b9 d5 de 13 cf c2 38 13 ef 22 20 9f 04 fb 8c 9e
       5.6251426e-27 2.3320113e-27 -3.3910214e-20 -1.4926894e-20
0003a0 17 ca 10 9e a4 e1 80 9d 68 09 34 9d e2 5e d2 9e
       -7.665088e-21 -3.4114625e-21 -2.3827665e-21 -2.2273857e-20
0003b0 7c 2f 1b 9e 9d 34 67 9e fc 62 49 9e 46 0d 33 9e
       -8.215451e-21 -1.2239918e-20 -1.0661321e-20 -9.478926e-21
0003c0 13 97 75 9a 52 24 fa 99 d3 30 a0 99 9d d2 73 98
       -5.078685e-23 -2.5864064e-23 -1.6563332e-23 -3.1513346e-24
0003d0 10 f1 61 98 45 58 b2 a0 e8 4f 67 a0 c4 bb a8 a0
       -2.9202274e-24 -3.0212785e-19 -1.95929e-19 -2.858456e-19
0003e0 cf 90 95 a0 87 51 1e a0 ae 32 00 00 ea 04 00 00
       -2.5337408e-19 -1.3410096e-19 1.818e-41 1.763e-42
0003f0 35 0b 00 00 a2 26 00 80 52 01 00 80 c8 27 00 00
       4.02e-42 -1.3859e-41 -4.74e-43 1.4271e-41

bias f4 [32]
000000 b3 85 eb a2 be 57 c1 3c a0 32 bf bc fb 28 fa 3b
       -6.3838437e-18 0.023601409 -0.02333957 0.00763428
000010 4c 1f be 3b ba 08 fa bc 2e 18 f9 3c 8e 07 e9 bc
       0.0058020707 -0.03052174 0.030407038 -0.028445985
000020 db 77 06 bd 87 1f aa 3b c5 9c c8 bc bd d2 ef bc
       -0.032829147 0.0051917466 -0.024488816 -0.029275293
000030 4f a2 91 3b 43 69 88 ab c8 6a 39 bd 8b 2c a9 bc
       0.0044443975 -9.692597e-13 -0.04526785 -0.020651123
000040 b0 f8 52 3d de ae 79 bc 68 68 65 bd d3 73 4a bd
       0.051506698 -0.0152394455 -0.056007773 -0.049426865
000050 26 75 7c 3d ac d7 f6 b9 4f 66 d9 3c af a6 d1 3c
       0.06163516 -0.00047081464 0.026538042 0.025592176
000060 ff 0e ad 3c c0 65 0c 3c ff 44 cc bb d5 b1 ae bc
       0.021125315 0.008569181 -0.006233811 -0.021325031
000070 dd af 78 3d d6 7f e1 ba f4 dd 21 bc ba 60 56 3d
       0.06071459 -0.0017204236 -0.009879578 0.05233834

weight f4 [32, 32, 5, 5]
000000 56 1e 00 00 8f 1b 00 00 a0 20 00 00 71 1e 00 80
       1.0882e-41 9.886e-42 1.1704e-41 -1.092e-41
000010 ef 28 00 00 c2 25 00 80 58 12 00 80 8e 09 00 80
       1.4684e-41 -1.3545e-41 -6.58e-42 -3.428e-42
000020 1f 08 00 80 1f 20 00 80 3e 19 00 00 bb 2a 00 00
       -2.913e-42 -1.1523e-41 9.055e-42 1.5329e-41
000030 c2 2a 00 80 ee 2b 00 80 cd 17 00 00 cf 07 00 80
       -1.5339e-41 -1.5759e-41 8.538e-42 -2.801e-42
000040 33 12 00 80 0f 03 00 00 ec 05 00 00 7a 24 00 00
       -6.529e-42 1.097e-42 2.124e-42 1.3085e-41
000050 55 27 00 80 21 09 00 00 b9 14 00 80 c1 21 00 00
       -1.411e-41 3.275e-42 -7.434e-42 1.2109e-41
000060 08 03 00 00 d0 ad 4f 3c 32 71 c5 3c 39 d5 f8 3c
       1.087e-42 0.0126757175 0.024101827 0.03037511
000070 81 62 e3 3c 58 df d2 3c 38 fb bf 3c d7 5a c2 3c
       0.027756931 0.025741264 0.02343522 0.023724956
000080 6a 3f e0 3c cc 54 b9 3c 53 50 9a 3c 60 24 94 3c
       0.027373988 0.022623442 0.01883713 0.018083751
000090 32 b6 ae 3c ab 66 89 3c 93 4a 93 3c b3 7a 61 3c
       0.021327112 0.016772589 0.017979896 0.013762164
0000a0 37 4e 7b 3c df cf d9 3c 6b 21 b8 3c e8 f1 0a 3d
       0.015338472 0.026588378 0.022476872 0.033922106
0000b0 d6 8e e2 3c 3c d4 51 3c bb 4f 8c 3c ed 4d 99 3c
       0.027656 0.012806948 0.017127862 0.018713916
0000c0 64 05 65 3c 12 c0 6c 3c b1 c0 59 3c 5d d1 ad 3c
       0.013978336 0.01445009 0.01329057 0.021217996
0000d0 f4 47 d0 3c ed 54 a1 3b 65 9b 77 3b 05 6d 3b 3c
       0.025424935 0.004923454 0.0037781831 0.0114395665
0000e0 c3 9b 02 bb f2 fb 96 3c 74 03 a4 3c 07 1a b5 3c
       -0.0019929267 0.018430684 0.020021178 0.022107137
0000f0 77 9b ca 3c d7 d7 ae 3c 0f eb b3 3c 28 e8 31 3d
       0.024732335 0.021343155 0.02196267 0.043434292
000100 8a 18 16 3d 50 ab 6a b9 50 d0 f7 3c 56 e9 e5 3b
       0.036644496 -0.00022379798 0.030250698 0.007016341
000110 54 3d 18 3d 25 9b 88 39 ae 4c 85 bc 26 e9 97 bc
       0.037167862 0.00026055533 -0.016271915 -0.018543791
000120 f5 85 7d 3c 8b ac 23 3c 11 87 bf 3b c6 31 34 3c
       0.015473832 0.009989868 0.0058449586 0.010998195
000130 b3 11 78 3c ca d0 8d 3c bd a5 92 3c c7 35 8c 3c
       0.015140939 0.017311472 0.017901296 0.017115487
000140 6c 64 f0 3b 5f 58 35 3c 12 9a 45 3c 8d f6 52 3c
       0.00733619 0.011068433 0.012060659 0.012876165
000150 80 c3 4f 3c bd e9 ae 3b 91 ad 13 3c aa d4 30 3c
       0.012680888 0.0053379224 0.009013549 0.010792891
000160 ff 11 3d 3c 90 4a 52 3c 05 1c ea 3b a7 7f 20 3c
       0.011539935 0.01283516 0.0071444535 0.00979606
000170 1d 60 36 3c 48 14 19 3c fd fa 52 3c 2e af e6 3b
       0.011131314 0.009343214 0.012877223 0.007039926
000180 e6 b0 26 3c 0c 22 44 3c 2e a5 58 3c fb 2d 70 3c
       0.010174012 0.011971008 0.013222976 0.0146594
000190 07 60 19 bd e9 ee e6 bc d8 1b 60 bc a6 1a 13 3b
       -0.037445094 -0.028190093 -0.0136785135 0.0022446304
0001a0 c2 14 88 3c 47 14 24 bd 60 75 15 bd 4d 15 d3 bc
       0.01661146 -0.0400584 -0.03648889 -0.025766993
0001b0 b9 50 34 bc 73 7b 25 3b 7d 00 37 bd 93 31 e7 bc
       -0.011005574 0.0025250583 -0.0446782 -0.028221881
0001c0 41 38 79 bc 91 49 92 bb 55 45 3d 3a 95 56 01 bd
       -0.015211166 -0.004464336 0.0007220109 -0.03157671
0001d0 04 62 18 bc a1 6c 36 3c 08 91 ab 3c 66 ec ce 3c
       -0.0093007125 0.011134298 0.02094318 0.025259208
0001e0 4c b5 23 bc 4d f0 b3 3b 51 80 aa 3c 8c d2 dd 3c
       -0.009991955 0.0054912926 0.02081314 0.027077936
0001f0 b9 85 f8 3c b1 f0 9a bb a7 ad 5a bb c5 19 45 bb
       0.030337201 -0.0047283997 -0.0033367665 -0.0030075174
000200 f4 46 25 bb 07 e4 93 bb 01 43 df 38 a3 2c 49 3b
       -0.0025219293 -0.004513267 0.00010645949 0.0030696772
000210 d7 e8 86 3b ec 19 be 3b c8 67 2b 3b 56 a2 8f 3b
       0.004117112 0.00580143 0.0026154388 0.0043833656
000220 70 ea 12 3c f2 41 32 3c 38 63 33 3c 3a 89 bf 3b
       0.008967027 0.01087998 0.010948949 0.005845216
000230 ed 65 ee 3b 94 0c 2c 3c 7b af 54 3c 8f 7f 56 3c
       0.007275334 0.010501046 0.012981291 0.013091936
000240 55 f9 ef 3b f2 0c 87 3a 60 6d 81 3b 90 d4 de 3b
       0.007323424 0.0010303541 0.003949806 0.006800242
000250 c0 be dc 3b d5 35 54 3b b4 60 8f 3c ab 70 88 3c
       0.0067366064 0.003238072 0.017502166 0.016655287
000260 5b 21 4e 3c 0a ef 52 3c 84 22 96 3c d5 3d 8d ba
       0.012581195 0.012874374 0.018327005 -0.0010775874
000270 1c 27 74 bc a1 ec ab bc 4c 0b 75 bc 12 b8 ca bb
       -0.0149019025 -0.020986857 -0.014956307 -0.0061864937
000280 c5 31 89 bc ba f7 11 bd f1 39 1a bd 3c 29 10 bd
       -0.016747365 -0.03563664 -0.037652913 -0.035195574
000290 f5 1a ab bc d6 53 a2 bc bc f4 13 bd 8a f6 49 bd
       -0.020886878 -0.019815367 -0.03612207 -0.049307384
0002a0 04 6b 39 bd c0 c2 dc bc 38 9c b2 bb 0f a8 a5 bc
       -0.045268074 -0.026948333 -0.0054507516 -0.020221738
0002b0 17 de ed bc 7a 33 d0 bc 2f b1 3d bc 91 6a 50 3b
       -0.029036565 -0.025415171 -0.011577888 0.00318018
0002c0 2a a3 44 3c 0f 43 89 3c 3b 29 85 3c af cb 3d 3c
       0.012001792 0.016755609 0.016255012 0.0115842065
0002d0 4d 02 63 3c bc bc a2 3c 47 31 c0 3c 05 64 b2 3c
       0.013855529 0.019865386 0.023460997 0.021776209
0002e0 01 00 85 3c 65 03 50 3c 06 ff be 3c 27 ac f2 3c
       0.016235353 0.012696122 0.023314964 0.029623104
0002f0 2d 26 de 3c c3 ca 90 3c 63 43 56 3c a2 bf c6 3c
       0.027117813 0.01767481 0.01307759 0.0242613
000300 80 5d 00 3d 1f b9 00 3d 6e 44 d3 3c 5a b6 e7 3b
       0.03133917 0.031426545 0.025789466 0.0070712985
000310 b7 39 67 3c 2b ac 98 3c dd fa 9e 3c de f1 7a 3c
       0.014112881 0.018636784 0.01940673 0.015316455
000320 4b 9e a2 3c db 7e d6 3c ef f6 bb 3c fd af 1c 3d
       0.01985087 0.026183536 0.022944896 0.038253773
000330 31 31 71 3d 44 a1 77 3c 7d 4c 3b 3c c9 69 92 ba
       0.058884803 0.015114132 0.01143181 -0.0011170442
000340 dd 30 1d 3c 72 c4 04 3d 54 2f 2e bd 96 eb 16 bd
       0.009594169 0.032413907 -0.042525604 -0.036845766
000350 a1 78 27 bd 0e 2a e6 bc 1b 31 e8 bb 5a 17 08 bd
       -0.040886525 -0.028096225 -0.007085932 -0.033225395
000360 47 34 fb bc bb 8c cb bc 44 f1 21 bc e1 78 82 3c
       -0.030664576 -0.024847379 -0.009884182 0.01592678
000370 8d 97 cd 3a 82 2e 3d 3c e3 27 c1 3b 1b 82 04 3c
       0.0015685424 0.011546733 0.0058946474 0.00808766
000380 1e 4f c3 3c ac d4 98 3b d3 1f 41 3c f9 02 ef 3c
       0.023841437 0.0046640243 0.011787373 0.029176222
000390 04 d3 b1 3b ce b7 af 3c b5 ae 8f 3c d2 5a ae 3c
       0.0054267664 0.02144995 0.017539361 0.02128354
0003a0 27 5d f7 3c fd 43 0a 3c 77 3a bc 3c 43 be c5 3c
       0.030195786 0.008439061 0.022977097 0.024138575
0003b0 90 2d a5 3c fd 38 df 3c 0e b6 7b 3c f4 e9 90 3c
       0.020163327 0.027248854 0.015363229 0.017689683
0003c0 ef 57 1c bb 1a 19 e9 39 df 72 91 3c 04 fa dc 3c
       -0.0023856123 0.00044459925 0.01775497 0.026974685
0003d0 6b d9 26 3c 35 03 8d 3c f4 9b 43 3c c5 a2 bf 3c
       0.010183672 0.017213443 0.011939038 0.023393044
0003e0 34 f0 4c 3c fd 5c 1b 3c ee cb e5 ba cf 1a 2c 3b
       0.012508441 0.009482619 -0.0017532089 0.0026261096
0003f0 f4 d3 85 3b e5 30 f1 3b 2a 40 b9 3b 0c 3a c3 3b
       0.0040841047 0.007360565 0.005653401 0.0059578475

bias f4 [32]
000000 30 0e bf ba 09 d2 04 bb c5 ec f9 bc 39 c3 25 3d
       -0.0014576372 -0.0020266792 -0.030508408 0.040469382
000010 51 d3 22 3d 62 90 39 bc d6 93 57 3d 53 3e db bc
       0.03975231 -0.011325927 0.05263122 -0.026763117
000020 9d 36 83 af 6d b8 0e ab 97 2f b4 3b 9b e0 30 bd
       -2.3867566e-10 -5.0704476e-13 0.005498837 -0.04318295
000030 87 7c ee 3c a6 58 a4 39 64 7e 84 3c eb 65 88 bb
       0.029112114 0.00031346566 0.016173549 -0.00416254
000040 44 d8 cb bc 77 95 5f bc 3a 95 0a 3d 38 72 89 b7
       -0.024883397 -0.013646475 0.03383372 -1.638486e-05
000050 25 60 4b bc dd fa 4d 3d 90 b8 1c bd 83 b3 2d 3d
       -0.012413059 0.05028807 -0.03826195 0.042407524
000060 73 09 6c bc 4c e6 de 3b 72 9a 3e bb 44 f1 20 3c
       -0.01440655 0.006802356 -0.0029083756 0.009823147
000070 a9 4f e5 bc 37 cf 05 95 15 b2 b5 bb eb c1 aa 3c
       -0.027992086 -2.70226e-26 -0.0055449107 0.02084442

weight f4 [13, 1152]
000000 eb e1 57 bc ed 4c 31 bc 1e 46 74 bc e3 c7 75 bc
       -0.013176422 -0.010821563 -0.014909295 -0.01500127
000010 ab 1a 10 bc 6d 88 01 3a 49 6b 58 3c 3a 51 a8 ba
       -0.008795421 0.00049412885 0.0132091725 -0.001284159
000020 77 05 68 bc 3b 56 84 bc ba 32 d8 3b f0 07 7b 3c
       -0.014161459 -0.0161544 0.006597844 0.015321717
000030 22 8c ca 3b 5f 44 d2 bb 88 00 67 bc a3 6e 8e bc
       0.006181256 -0.006416842 -0.014099248 -0.01738674
000040 ba 8c 4f 39 c6 ce 03 3c 78 43 8f 3b a0 c8 c7 ba
       0.00019793483 0.008044904 0.0043720566 -0.0015242286
000050 a2 b8 cc 3b 1c 70 8a bb ff 93 31 bc fb 4f ac 39
       0.006247596 -0.0042247903 -0.010838508 0.00032865987
000060 2b 7d 59 3b cb 2d 77 bb e4 13 43 ba 03 d6 71 3c
       0.0033186178 -0.0037716504 -0.00074416236 0.014760497
000070 a3 1d 19 3c 4b cd 47 3c 0e ae 33 3c d3 1d c2 3b
       0.009345445 0.012194942 0.010966791 0.0059239655
000080 41 5b f4 3b b9 58 c0 3c 4e ba 9f 3c b1 08 5a 3c
       0.0074571674 0.023479806 0.019498017 0.013307736
000090 ff d3 8d bc 42 e5 1b bc 96 4b 8e bb e3 45 a4 3b
       -0.017313002 -0.009515109 -0.0043425066 0.005013214
0000a0 b3 b6 c6 3b aa b7 22 bc 9c 9b 38 bb ff 21 e2 bb
       0.00606426 -0.009931484 -0.0028168922 -0.0069010253
0000b0 0e 34 36 ba a2 1e 88 3a 1e 80 56 3b e7 a7 45 bc
       -0.0006950506 0.0010385106 0.0032730172 -0.012063957
0000c0 3b cb 69 bc f9 fb 82 bc 00 d7 03 3a 92 88 d1 bb
       -0.014269645 -0.01598929 0.0005029291 -0.0063944543
0000d0 30 cf 4d 3c 90 68 15 3c 73 52 86 bb 9a e3 a5 3b
       0.012561604 0.009119168 -0.004099184 0.0050625326
0000e0 82 f4 d9 3b b2 06 fb 3a c5 fb df 3b 0b a5 c4 bb
       0.006651462 0.0019151776 0.006835433 -0.00600112
0000f0 14 e7 ca bb 0a 07 81 bc 63 87 c9 bb 0a 63 fb 39
       -0.0061920974 -0.015750427 -0.0061501726 0.0004794824
000100 1d ec 46 bc 15 d3 73 3b 63 9d f9 bc fe 17 9d 3b
       -0.012141255 0.0037204672 -0.030470556 0.00479412
000110 03 3d de bb 08 e1 2c 3b 9a e2 37 bb ce ad c8 3b
       -0.0067821755 0.0026379246 -0.002805865 0.0061242348
000120 89 d8 4a 3d 86 04 13 3d 53 18 47 3d 0e ee 5b 3c
       0.04952291 0.035892986 0.04860718 0.013423456
000130 9d a8 ae 3c 19 42 8d 3c 61 82 8c 3d 6e ce 99 bc
       0.021320635 0.017243432 0.06860805 -0.018775191
000140 b4 0a 9e 3c ad 08 dc bc 66 e8 f7 bb b5 da 62 3c
       0.019292213 -0.026859606 -0.007565546 0.013846089
000150 9b d1 42 bd b7 e5 8a bd 67 3f f4 3c e9 dd 12 3d
       -0.047563177 -0.06782096 0.029815389 0.03585616
000160 5b 78 58 3b f6 42 24 3c a2 70 05 3d 9f be 42 bc
       0.0033030722 0.01002573 0.03257812 -0.011886268
000170 e0 2f b0 bb f9 c8 1a bd 88 85 ca 3b 2c 79 83 3c
       -0.005376801 -0.03778932 0.006180469 0.01604899
000180 33 c8 b3 bb 41 13 a3 3c e0 07 9e 3b c6 11 e6 bc
       -0.005486512 0.019906642 0.004822716 -0.028084647
000190 11 5f 64 bd 6e 1c 47 bd 1b 87 d5 3c 51 8a 56 3d
       -0.055754725 -0.048611097 0.0260654 0.052378003
0001a0 64 31 d9 3c 4a 02 7c 3b 50 92 52 bc e7 6a 68 3d
       0.02651281 0.0038453513 -0.012852266 0.056742575
0001b0 70 1e 20 3c d6 f4 d5 3c 81 ae cf 3c 09 9d 8a 3d
       0.009772882 0.026117723 0.025351765 0.06768233
0001c0 48 9d 39 3c 6b c3 3b ba df cf 1f 3d 82 f5 1b 3c
       0.011329003 -0.00071626034 0.0390166 0.009518983
0001d0 71 a6 15 3d 2e cc c6 bb 74 82 28 3d 38 d8 ba bc
       0.036535684 -0.0060668206 0.041140035 -0.02280818
0001e0 2d f9 88 3d 27 80 e2 3c 23 76 0f 3d 1c db 29 3d
       0.066881515 0.027648998 0.035024773 0.041468725
0001f0 b9 1b 3c 3d 13 b6 2c 3d 18 88 61 3d cc 0b 3b 3d
       0.045924876 0.042165827 0.05506143 0.045665547
000200 f6 cc 70 bb 9e df 92 bc 19 ce 6b 3d ae c6 a0 3d
       -0.003674326 -0.017928895 0.057569597 0.07850395
000210 db 09 dd bc ae b9 14 bc 60 07 0a bc 5d 95 b8 3c
       -0.026982239 -0.009077473 -0.00842461 0.02253216
000220 36 0d 3c 3d 68 b6 75 3d b5 17 7a 3d ed f8 2e 3d
       0.045911036 0.05998841 0.061057765 0.042717863
000230 31 ac 64 3d 2e 72 97 3d 9b 9c 63 3d 26 57 59 3d
       0.055828277 0.07394825 0.055569272 0.053061627
000240 15 03 93 3d cc 5c 81 3d 85 d2 72 3d 48 7d 46 3d
       0.07178322 0.06316528 0.0592828 0.04845932
000250 7b 4f 82 3d 19 00 29 3d 4a f5 89 bc f5 b9 46 bc
       0.06362816 0.04125986 -0.016840596 -0.012129297
000260 16 bb b3 3c 65 2b bb bc a0 f9 68 3c ce 11 44 3d
       0.021939795 -0.02284784 0.0142196715 0.047868542
000270 e0 48 f3 3c 2c c6 15 3c 31 ba 46 bb a0 03 80 3c
       0.029697835 0.009141486 -0.003032338 0.015626729
000280 71 4e 75 bc 9d a9 5e 3c 75 89 c5 3c ad 84 1e bd
       -0.014972315 0.013590244 0.024113396 -0.03870075
000290 72 73 a6 3c 84 01 0d 3b c6 5e a7 ba 49 25 7f bc
       0.02031872 0.0021515796 -0.0012769334 -0.015572854
0002a0 4a 44 0c 3d 1b c4 67 bb 4a d9 1a 3d 49 d3 58 3c
       0.034244813 -0.003536469 0.03780488 0.013233968
0002b0 fb 9d df 3c ad 75 94 bb 6e 50 bb 3c fa f1 aa 3c
       0.02729701 -0.0045306296 0.0228655 0.020867337
0002c0 51 ba b6 3c 1a 5c 7f 3d 7d 8d 00 bb 71 9a 52 3d
       0.02230564 0.062343694 -0.0019615584 0.051416818
0002d0 73 6f 0a 3d a7 f1 10 3c e5 e7 cf ba 2a 8e 19 bc
       0.033797693 0.008846677 -0.0015861957 -0.009372273
0002e0 b1 8f 86 3b ab 38 99 3b d7 ba 24 3c 96 0f e4 bb
       0.004106485 0.004675945 0.010054312 -0.006959866
0002f0 00 2c 4c bc 55 d2 ad bc db a0 2d 3b ca 8d 05 3c
       -0.012461662 -0.021218458 0.0026493582 0.008151481
000300 3a 11 d2 3c 07 9f f8 3a 1e 64 11 bc 8a 16 91 bc
       0.02564298 0.0018968292 -0.008873967 -0.017710943
000310 84 db 68 bb 05 83 84 3b 24 df 28 3c da 73 9a 3b
       -0.0035531232 0.004043939 0.010307107 0.0047135176
000320 12 66 32 3c 86 71 87 3c 7e 0d 3e 3b 1e ee ea 3a
       0.010888593 0.016533624 0.0028999741 0.0017923748
000330 5c 39 6c bb 29 1b 43 3c f0 bc 8d 3c a7 46 ef 3c
       -0.003604493 0.011908331 0.017302006 0.029208494
000340 91 0f 04 3b 35 91 c3 ba 46 f5 e6 3c 2e 6d 29 3c
       0.002015088 -0.0014920594 0.028193127 0.010340972
000350 41 1c 15 3c 17 6d 33 3d a0 d6 c1 3c b1 e7 5a 3c
       0.009100975 0.043805208 0.023661911 0.013360904
000360 92 6b a2 bc 42 0b db ba 32 a3 cd 3c b7 fb d7 3b
       -0.019826684 -0.0016711729 0.025102232 0.006591286
000370 55 51 e8 bc e4 10 d3 3c e7 18 c8 bc d5 9d 96 3b
       -0.028359095 0.02576489 -0.024425937 0.0045964518
000380 a8 c8 a2 bc 06 e1 d5 3c 65 f2 29 bc 06 20 da bb
       -0.019871071 0.026108276 -0.010372733 -0.0066566495
000390 a8 7f ef bb b8 fb 29 3b 8a 52 81 3b 95 eb 9e 3b
       -0.007308919 0.002593739 0.003946607 0.004849861
0003a0 1b 58 d0 bb e6 bc e1 bc 1a 67 44 3c e6 a6 12 bc
       -0.0063581592 -0.027555894 0.011987472 -0.0089509245
0003b0 94 4f 26 bc ec c5 95 bc 86 52 95 bc 02 59 62 3b
       -0.010150809 -0.018282853 -0.018227827 0.0034537916
0003c0 e2 d2 ae bc 2f d1 06 bd 1d d9 87 bc 1f f6 29 bc
       -0.021340791 -0.032914337 -0.01658302 -0.010373621
0003d0 1d 4f 20 3c 4c dc 25 bd c1 18 5d bc 71 b4 d9 3c
       0.009784487 -0.040493295 -0.013494671 0.026575299
0003e0 79 61 e5 bc 06 55 d9 bc 6c ae c2 bc 90 54 a6 3c
       -0.02800058 -0.0265298 -0.023764811 0.020303994
0003f0 31 d9 ab ba f7 7f 26 bc e7 b5 57 bd cf 12 9f 3a
       -0.0013110993 -0.010162345 -0.05266371 0.0012136343

bias f4 [13]
000000 93 45 ca 3b 26 f6 4f bc 22 3b 26 3c e3 32 6d bb
       0.0061728447 -0.012692964 0.010145934 -0.003619366
000010 44 df 0f bd 6c b0 ef bc 2d 5c a1 bb 06 b9 01 bc
       -0.035125032 -0.02925893 -0.0049243183 -0.007917648
000020 07 44 8e 3c 70 df 1d 3d d1 1f 28 bc db fb 01 3c
       0.017366422 0.038543165 -0.010261492 0.007933582
000030 7b 03 08 3d
       0.033206444
