best_cnn_sgd.pth (torch, 224408 bytes, 10 tensors)

weight f4 [8, 3, 3, 3]
00000000: ab51 1dbe 992d f4bd 81f6 4bbd d45a 183e
00000010: 5228 ce3d a5ef a23d 933c 163e 51f2 3f3e
00000020: 762e dbbd 671d 63bd 9b1e 05be b86d 133e
00000030: 9c77 3bbc dddb 973d 7fcc a13a 8d83 893d
00000040: 7509 f8bd 94f5 903c 2cfe debd 8624 f8bd
00000050: 5601 1fbd c136 d4ba ee14 1c3e 3ba3 e53d
00000060: 784a 2e3e 8786 2cbe 3262 2ebe 17dc 033e
00000070: 7058 473e b6e5 fcbd a05d 653b 808b b53d
00000080: dfc4 4fbe 87f5 8f3d c71e 22be 168c 8a3d
00000090: e553 9e3e 12b2 c63e 4c3d c53d 39ef 0f3e
000000a0: 893c b13c f918 3cbe c36d 763e fa7f ca3e
000000b0: 2846 033f b253 edbd 3c4b 8cbd cdd0 ccbd
000000c0: 0241 3a3e 4dcd 9abd 9660 2abd 35d7 813e
000000d0: 1691 213e 95a1 043e 719c 2d3e 0d59 ea3d
000000e0: 902f a7bc e328 613e 4b9d 033e 3fcc 093e
000000f0: 062e 6e3d a391 683e 5022 f73b 4930 58be
00000100: 457a 4dbe 82d3 b43c 9973 d13c a147 c13d
00000110: 62e4 623e a4a9 c0bc 7f44 97be 89c0 40be
00000120: 680f 14be b094 29be e269 533d 670f 3b3e
00000130: 6a50 90bc 7dd5 ab3d d466 723d 2499 cebc
00000140: e133 0a3c 84ea c9bd d24c 4a3e be23 1f3e
00000150: 3b32 f6bd 6c65 f8bd e40b 13be 1076 c73d
00000160: 443e 30bb 0b9a f4bd 473f ad3d fe29 a7bd
00000170: e2c9 cf3d eb40 093c 7695 b43d 5da0 e4bc
00000180: 7d70 9fbd 07e1 43be 7cfd c1bd ebce 6e3d
00000190: dd9e db3d 2062 15ba a1d4 e83d 47fe 25bd
000001a0: 7dd5 a6bd c85a 45be 75ab d63d b6e9 e9bd
000001b0: 84e8 6b3e 3362 c13d caa3 18be 5102 e73c
000001c0: 650e f6bd e5c4 103d 3b82 15be 53df 0ebd
000001d0: e5d8 21be 567b d6be bf84 ccbe f09b afbd
000001e0: 9d50 16be ff4e c43d de6a 1e3e 900b 603e
000001f0: 388f c23d 987e 6dbe 198b 203e 76a5 3c3e
00000200: 4bef fd3c 66a3 6b3e f641 e83d 722d 243e
00000210: cfdb 943d 17fe e43d 2641 513e a1bd 803d
00000220: dc87 34bd 934a 183c b59d b8bd 21db 173e
00000230: 4da1 76bd 9946 343e 4d20 483e df28 b13d
00000240: 0f5b 643e 5e06 a83e 61dc d23e 2018 e2bd
00000250: c014 bcbe c5da b3bd 5a4f 8c3e 20c6 ec3e
00000260: c94c f73e 3f02 b33d e54d f63c 6722 b43d
00000270: 015c b93b 4a13 da3d 74c4 f13c e7d5 46be
00000280: 098e 38be 002e cd3c 8873 31be 61a4 243e
00000290: 3b04 d43d 0c61 c83d 5dd3 b8bd e208 403c
000002a0: d607 9abd f3eb 35be 2879 f5bd 08b9 813e
000002b0: fd1a 093e 7c2d 583e 9c50 e23d 2f1b 143e
000002c0: 3744 b53c a852 473e 6fff edbc a4d3 973e
000002d0: 21e9 1fbd 5f6b 25be 7e21 d8bd 15bc 2fbd
000002e0: fc2a 583e 8863 363c a58e 183d c46b 6bbd
000002f0: a018 e33d 6d68 063e beec 00be b10c 523d
00000300: 283d 66bd ca2b 803d d987 2d3e 70bb 953e
00000310: 7fcc 523e 3e6d 883e 7b1d 9dbe 94c3 3ebe
00000320: 3562 91be a23f 4c3e 2c40 53bd 89f9 ab3e
00000330: 8e6f 77be 8187 a3be c620 8dbd 2b4c 9abd
00000340: ae45 4f3e a915 40bd 7475 bc3d 534f 653e
00000350: 8d9e 4b3e a75c 413d be40 e63d 3f42 253e
-0.15363185 -0.119227596 -0.04979563 0.14878398 0.10066284 0.07955865 0.14671545 0.1874478
-0.10702221 -0.055447962 -0.12999956 0.14397323 -0.011442091 0.074149825 0.001234427 0.067145444
-0.12111179 0.017695226 -0.10888323 -0.12116341 -0.038819633 -0.0016190634 0.15242359 0.11212774
0.17020595 -0.16848193 -0.17029646 0.12876926 0.1946733 -0.123485014 0.0034998432 0.08864498
-0.20289944 0.070292525 -0.15832053 0.067650005 0.3092338 0.38807732 0.09630832 0.140561
0.02163531 -0.18368901 0.24065308 0.39550763 0.51278925 -0.11588229 -0.06850287 -0.10000763
0.18188861 -0.07558689 -0.041596018 0.25359502 0.15778002 0.12952264 0.16954209 0.11442766
-0.020408422 0.21988253 0.12852971 0.1345682 0.05814936 0.22711806 0.007541932 -0.2111217
-0.20066173 0.022073511 0.025567817 0.0943749 0.22157434 -0.023518391 -0.29544446 -0.18823446
-0.14459002 -0.16560626 0.05161465 0.18267594 -0.01761647 0.08390329 0.059180096 -0.025219508
0.00843522 -0.098591834 0.19755867 0.15540978 -0.120212995 -0.1212872 -0.14360005 0.097393155
-0.0026892582 -0.11943444 0.08459335 -0.08162306 0.10145928 0.008377294 0.0881757 -0.027908498
-0.07785127 -0.1912881 -0.094721764 0.0583028 0.1072366 -0.00056985207 0.11368681 -0.0405257
-0.081461884 -0.19272912 0.104819216 -0.1142153 0.23037916 0.09442558 -0.1490623 0.028199347
-0.12014464 0.035344023 -0.1460046 -0.034880947 -0.15805395 -0.41890973 -0.39945027 -0.085746646
-0.14679189 0.0958538 0.15470454 0.2187941 0.09499973 -0.23192823 0.15678062 0.18422493
0.030997893 0.2301155 0.11340706 0.16032961 0.07268488 0.11181276 0.20435008 0.06286169
-0.044074878 0.009295124 -0.09014455 0.14829685 -0.060212422 0.17605056 0.19543572 0.08650374
0.22300361 0.32817358 0.4118376 -0.11039758 -0.3673458 -0.08781961 0.2740429 0.46244907
0.4830077 0.08740663 0.03006644 0.08795624 0.0056567197 0.1064821 0.029512621 -0.19417535
-0.18022932 0.025046349 -0.17329228 0.1607833 0.103523694 0.09784135 -0.09024689 0.011720868
-0.07521026 -0.17765789 -0.11985999 0.2533648 0.13389201 0.21111101 0.11050531 0.14463495
0.022127254 0.19465125 -0.029052464 0.29653656 -0.03904069 -0.1615424 -0.10553263 -0.04290398
0.21110147 0.011132129 0.03724541 -0.05747582 0.11088681 0.13125773 -0.1259031 0.051281635
-0.056210667 0.06258352 0.16946353 0.29244566 0.20585822 0.26645845 -0.30686554 -0.18629295
-0.2839524 0.19946149 -0.05157487 0.33588818 -0.24163648 -0.3193932 -0.06891017 -0.07534059
0.20241424 -0.046895657 0.0920209 0.22393541 0.19884701 0.0472075 0.11242817 0.16138552

bias f4 [8]
00000000: 3d46 f7bd 5b8b f9bd 8f06 793e 1555 253e
00000010: 96d0 a63e 80c7 15bc 10f7 81be da21 683c
-0.12073944 -0.12184783 0.24318908 0.16145737 0.32581013 -0.009141803 -0.25383806 0.014168227

weight f4 [16, 8, 3, 3]
00000000: a576 c5bd f457 663b 6fd3 d2bd b2b6 cebd
00000010: 9d0a 293d 8143 2f3d 1e89 6d3d a87b f9bd
00000020: 01bd ef3c b9de acbd 067f 783d 9070 e03d
00000030: bef7 72bd d447 be3d d612 41be d38c bb3d
00000040: a8d7 c3bd 921a bb3d eff4 143e 0d7f 47bc
00000050: 713d 4cbc dd50 083e 03ce db3d 3c3a 573e
00000060: 5975 1d3d b500 283e a71b 003d 79c7 84bd
00000070: 9fdb 7f3c 1898 c7bd 6f52 de3c afa4 e1bd
00000080: 7294 01be 0d25 ecbd c5a1 ebb9 63ef e7bd
00000090: 1bba d13d fec3 793d 3ae3 09be 4f4f 62bd
000000a0: 32a5 31be 0c06 f33d e855 a6bc a522 373e
000000b0: 9823 86bd 0936 b5bd c465 103d 290a 4d3d
000000c0: 1e71 c93d 8d65 05bd 6119 2fbb 7692 16bd
000000d0: 2100 b03c c66d 5dbd f486 6cbd 756f fdbd
000000e0: 3da9 07be 4a3f e2bd b4b9 fabd 6476 19be
000000f0: eb50 2cbc 4662 48bc bf8a 673c 59fd 303c
00000100: 5e0d 873d e92d 2a3e d1da 223e af62 363d
00000110: 005a 00bd 6c9d f23d 007e 72bd 8e71 dabc
00000120: 5207 c03d 233d 623d 5f15 75bd 3cee c6bc
00000130: eb98 63bd 185b 8dbd 9e19 65bd 8581 253d
00000140: de89 9bbd b620 b6bd 26ef 6b3d e016 0abd
00000150: e488 bf3c dedc 7e3c 86c3 623c c663 1bbd
00000160: befd 8abd 1ce5 91bd b74d cfbd 9fd3 673d
00000170: 60a1 c1bd a0dd bc3d 91c6 9cbd 29f9 96bc
00000180: 0269 6ebc a827 bcbd ca7b 3e3d 4382 783d
00000190: 3331 b7bb 9c24 3a3d 7097 16bd 63fe cc3d
000001a0: b9e8 2fbc 9aba c9bc fdef 1e3d 00d1 ce3d
000001b0: 80ed 8f3d f8e5 c33d 7125 873d 3ed6 6ebd
000001c0: 6a54 0e3d 953b aa3b f9f1 c33d 05ff 433d
000001d0: d6a8 c4bd 9f7b 603d 0e90 bf3c 80c8 7bbd
000001e0: 0096 96bd 930b bbbd efc2 b33d 5e26 91bd
000001f0: 1505 aabc 3e83 6dbd cfaa f9bc 8c17 683c
00000200: 24d6 f5bc 9da1 d5bd fb4b cbbd bbd2 883d
00000210: 73e9 0abd 7c7d 5e3d 2abe 80bd eb4f 953c
00000220: a08e da3a d695 a83d 3c1d d2bd 3768 073d
00000230: a486 34bc 648a 6cbd 0d50 403d 4d09 60bd
00000240: 9203 e63d 1e18 073e d4af e33b 3d33 a53c
00000250: 9592 61bd 4ea0 94bd fdaa 9abc 5f31 b03b
00000260: 1de3 0a3d e780 fcbd 40f5 dabd e4ff 833d
00000270: 3e51 6d3e 17b0 263e a744 983d 7e6c 2fbe
00000280: 99af d2bd b648 ebbd 7b85 243e 2c0d 123e
00000290: f54a 3d3e 9654 c33c 7de9 c7bd 67f6 dbbd
000002a0: 0ab4 c3bc ad6a 40bc d74e f23d 4da3 333c
000002b0: 041c bb3d b5e1 143d 474c c23d f20b 7b3d
000002c0: ab94 903d d608 2f3d db84 12bc a197 36bd
000002d0: 44f5 1cbc f202 863d 2d02 003d c864 6fbd
000002e0: 7e46 01be d011 2d3d 0a07 503e 8fe8 2d3e
000002f0: 5f1f c03d 91be dcbd 87b1 64be 8100 57be
00000300: 12a3 263e 2f54 9a3e d2a9 4f3e cf2c a1bd
00000310: e21f cdbd adfd 6ebe 7eaf debd 1dc3 ff3d
00000320: 482e a4bc 4b39 733d 6bb3 663d cf3e 083e
00000330: 2f06 653d fbc9 f8bc 3f69 153d a202 543e
00000340: 9d17 1f3d 93b2 70bc 4278 81be 8616 3bbe
00000350: 1b13 80be 3afe 4abd 615d 243e ed50 8a3c
00000360: b05a 503d 9654 11bb b483 36bd 9555 e0bd
00000370: e90e db3c f179 523d 5fff 223d 2d68 533d
00000380: 5c38 84bd 6f00 09bd c9fc ebbd 5d90 a6bc
00000390: f60d 4fbb d0e0 29be 1241 57bd ec5e 633d
000003a0: 9709 6c3d 514a 233d 6e2e 133e 97fd d83d
000003b0: 66cf 393e 3fd3 41bd a257 c73c eafa ca3d
000003c0: 9ad8 bc3d b06a bb3d 872f 95bd 4638 b0bc
000003d0: 01a0 d03d 5180 a93d 2019 033d ba1e e9bd
000003e0: 3481 a33d 8ad7 843c 4dcb 643d 2a19 57bc
000003f0: 1746 2abe 4084 9e3c cbac 16bd 1e45 8cbd
-0.0964177 0.003514764 -0.10294234 -0.1009344 0.041269887 0.042788986 0.057992093 -0.12181789
0.029264929 -0.084409185 0.060668014 0.109589696 -0.059318297 0.09291044 -0.18854842 0.091577195
-0.095626175 0.09135927 0.1454656 -0.012176287 -0.012465821 0.13312097 0.10732653 0.21018308
0.03844199 0.1640652 0.03127637 -0.06483359 0.015616327 -0.097458065 0.027138917 -0.11017739
-0.12654284 -0.115305044 -0.0004494322 -0.11324956 0.10240575 0.06097793 -0.13465586 -0.055251416
-0.17348173 0.11866388 -0.020304635 0.1788431 -0.06549758 -0.08848197 0.0352533 0.050058518
0.098360285 -0.03256755 -0.0026718008 -0.03676077 0.021484436 -0.054059766 -0.05774589 -0.12374774
-0.13248153 -0.11047228 -0.12242451 -0.14986569 -0.010517339 -0.012230461 0.014132201 0.01080259
0.065943465 0.16619076 0.15903784 0.044527706 -0.03133583 0.11846432 -0.059202194 -0.026665475
0.09376396 0.055234086 -0.059834834 -0.02428352 -0.055565756 -0.069021404 -0.055932634 0.040406723
-0.075946555 -0.08892958 0.057601117 -0.03371322 0.023380704 0.0155555885 0.013840562 -0.03793695
-0.06786679 -0.07123777 -0.10122245 0.056598302 -0.09454608 0.09221959 -0.07655061 -0.018429356
-0.014551403 -0.09187251 0.046504773 0.060671102 -0.005590582 0.04544507 -0.036765516 0.10009458
-0.010736638 -0.024625111 0.03880309 0.10098457 0.070277214 0.095653474 0.06598938 -0.058309786
0.034748472 0.005195091 0.09567637 0.047850627 -0.096025154 0.054805394 0.02338412 -0.06147051
-0.07352829 -0.09133067 0.08777415 -0.07087396 -0.020754376 -0.05798649 -0.030476956 0.01416577
-0.030009337 -0.10431216 -0.099266015 0.06680819 -0.03391404 0.05431889 -0.06286271 0.018226584
0.0016674586 0.08231704 -0.10259482 0.03305837 -0.011018429 -0.057749167 0.046951342 -0.05469637
0.1123115 0.13192794 0.0069484506 0.020166034 -0.055071432 -0.07257138 -0.018880362 0.0053769792
0.033908 -0.12329274 -0.10691309 0.06445292 0.23175523 0.1627811 0.074349694 -0.1713123
-0.10287399 -0.11488478 0.16066544 0.14262837 0.18485625 0.023844045 -0.09761331 -0.10740357
-0.02388956 -0.0117441835 0.11831444 0.010964227 0.09136203 0.036348063 0.09487205 0.06129069
0.07059606 0.042733036 -0.008942808 -0.0445782 -0.00957996 0.065435305 0.031252075 -0.058445722
-0.12624547 0.042253315 0.20315185 0.16983245 0.093809836 -0.10778535 -0.22333346 -0.20996286
0.16273144 0.30142352 0.20279625 -0.07869875 -0.10015847 -0.23338957 -0.10873316 0.12488387
-0.0200416 0.05938081 0.05632345 0.1330521 0.0559141 -0.03036975 0.036477324 0.2070413
0.03884088 -0.014691013 -0.25287062 -0.18270311 -0.25014576 -0.049558856 0.16051246 0.016884292
0.050867736 -0.0022175661 -0.044559196 -0.109538235 0.026740508 0.051385824 0.039794322 0.05161302
-0.06456062 -0.03344768 -0.11522824 -0.02033251 -0.0031594015 -0.16589665 -0.05255229 0.055510446
0.057626333 0.039865796 0.1437318 0.105952434 0.18145522 -0.0473206 0.024333779 0.09911139
0.09221001 0.091512084 -0.07284456 -0.021511208 0.10186768 0.082764275 0.032006383 -0.11382814
0.07983628 0.016216058 0.055857945 -0.013128558 -0.166283 0.019350171 -0.036785882 -0.068491206

bias f4 [16]
00000000: 06a2 303e 6020 d8bd 3056 9b3d 5e1d 0a3e
00000010: c956 d93c 3f96 2b3e 2854 3fbe 1b2d 9ebd
00000020: 94f8 dcbc acb4 75bd c545 b1bd 990d 4e3e
00000030: 128c e33d d5cc 93bd 98aa 3c3a 14e3 193e
0.17249307 -0.1055305 0.07584798 0.13487765 0.02653064 0.16756533 -0.18684447 -0.07723447
-0.026974 -0.059986755 -0.086558856 0.20122375 0.11110701 -0.07216803 0.00071970513 0.1502803

weight f4 [32, 16, 5, 5]
00000000: 7afa 6fbb b61e 12bb 40a6 47bc 8095 213d
00000010: 1ba7 fd3b 4a75 d0bb 4697 afbc ad51 3ebc
00000020: 55b0 5c3a 0a28 be3c 6f16 a8b9 8d74 dbbc
00000030: c2fb 2a3d d751 ddbc 3a6d 5e3a 99ca 5d3b
00000040: fea1 a73c 7398 503c 7692 fdbc 8179 3abd
00000050: a470 d8bc 847d 063d ceec c23c af8e 0f3c
00000060: 2c9c 833c 7074 dbbc c6ae fb3c beff 2c3d
00000070: a8d8 2a3c 7daf 34bd 2fab bc3c de3e 02bd
00000080: 1b58 14bd a2e6 07bc 6baf d6bc 0dd4 2f3d
00000090: 0bba 0f3d 0e7f b23c 293b baba 7d24 e3bc
000000a0: fe72 2c3d 73ff a0bc ad2e c3bc 4bb0 92bc
000000b0: 09e9 d93c 2278 833c de7d c03c 31a5 043b
000000c0: 674b 803c 8f04 1ebd 787e 40bc eb40 36bb
000000d0: f5c2 92bc aa4a 84bc 4a6d 3bbd 4c7a c6bc
000000e0: 1347 35bc 8471 f73a 7e6a 01bd 26f9 82bc
000000f0: 6b30 59bb 08c4 24bd b991 00bd c93c cabc
00000100: e716 0b3c 605b 1dbd 4f38 12bd 144e 24bb
00000110: fc11 97bc 4de7 4bbc 80cd afbc 8adb 42bc
00000120: 813b 22bd b51c 2b3c 3ccd 103c 2109 ffbc
00000130: 380b 1d3c b500 2abc b35b 17bc d5f0 25bd
00000140: f76c 15bd b11f 87bc 5eac af3c 0109 19bb
00000150: ac7b 7f3b ed87 f03c 8aca 1a3b 8eb4 223d
00000160: 9766 bd3c 3e8e 1c3d cbd2 393d f1d9 283d
00000170: 4318 113d a6a0 273d 3220 2abd baa6 d93b
00000180: 131b 233d 14df 2dbd 2eff d7ba 8aae cbbc
00000190: 600f 043d bebf dabc 21b1 f1bc 1a0e 2ebc
000001a0: a8f4 383d 1239 aebc 824f 3dbd b964 19bd
000001b0: dfb2 0ebd 60bf 4bbc 4484 233d f90a 013d
000001c0: 00cd e63b a134 fd3c 4aa6 83bb 2d9f 253d
000001d0: 6e01 853c caaa 21bd b9cc 183d eac9 1d3c
000001e0: 3916 ca3b 68f7 f73c bac6 a93c 2c10 73bc
000001f0: 8e47 7bbc 756a aa3c 1281 d23a ae26 363d
00000200: 0009 ba3c 2aa7 1f3d 0b27 c9bc c8ee 013d
00000210: d44b 893c 6b07 89bc b8cb 3d3c f1ca 353d
00000220: 82b8 e3bc 37e8 0ebd d0ea 24bd 3ec1 28bd
00000230: 0afd aebc 5b8e 84bc 4a1b 193c 42cf 5cbc
00000240: b36c 2f3d 3d60 0f3d 1e3b 973c 139c 09bd
00000250: 39f1 ebbb 598b 17bd d9c0 b73b de84 c8bb
00000260: 2205 c13c 35a4 93b8 8275 2b3d 2009 663a
00000270: 6817 063d 2be9 3f3c eeb4 dcbc 70b2 dd3c
00000280: 014c 3abd feff 35bd b1a7 203c 4e78 0a3d
00000290: a6f2 343d b848 c8bc 61b1 2e3d 90ed 1abd
000002a0: 8fec 223d 1a54 5cbb ec01 34bd 92c1 25bd
000002b0: c092 42ba 6978 f2bc 868d 42bc b9d1 373d
000002c0: 63b9 3a3d b1ce 26bd 9395 38bc 2a10 1e3c
000002d0: 1bb3 f5bc ef27 04bd 4358 cc3c 5cf9 06bd
000002e0: f5a7 bebc ca5c f9bb 5425 ecbc cfc9 1ebd
000002f0: a9aa 1c3d 709f 2d3c 4d07 203d 8f73 f73c
00000300: c38e 76bc b1e9 f3bb 28b1 2dbd 89ca 0f3d
00000310: c8a2 b9bc 7727 c6bc 90d8 94bc 9d3e 8b3c
00000320: 9059 abbc 2178 a73c c9f0 97ba a0ee a4bc
00000330: cca0 833c ae31 39bc d898 5bbc f501 1e3d
00000340: c056 2f3d 927e c9bb 8937 323d 2ef9 0dbc
00000350: 6969 ef39 99e7 27bd 6d7d d73c 6a65 28bd
00000360: 7a87 d7bc 4465 543c 0cd8 9bbc b387 d6bb
00000370: d65b c13b 899e 5fbb 643c a3bc 1b03 2cbd
00000380: 13b6 2d3d 39de 04bd 5925 b1b8 2ac9 063c
00000390: bd99 2abd 2d01 0fbd 829c 9f3c 39a1 1bbd
000003a0: bd7e 10bd fb4b a93c 1d06 843c 6acc 993c
000003b0: 76af b5b9 9bd1 d2bc bc45 20bd b8d6 b8bc
000003c0: 122d 31bd f20c 34bd 9d82 9e3c 46bf 383b
000003d0: bacf 1cbb 43c8 bb3c bb77 3e3d bc3a d7bc
000003e0: 8d8e 383d ce84 f9bb 4948 e5bc 8fbe 5cbc
000003f0: f77a 94bc cc68 783c c286 f33c 68ec 62bc
-0.0036617802 -0.0022296137 -0.012185633 0.039449215 0.007740868 -0.006361638 -0.021434437 -0.011616153
0.00084186095 0.023212451 -0.0003206017 -0.026788974 0.041744 -0.027016563 0.0008484904 0.0033842681
0.020462986 0.012731659 -0.030953627 -0.04552603 -0.026420899 0.032834545 0.023794558 0.008762046
0.01606568 -0.02678892 0.030722987 0.042236082 0.010427631 -0.04411267 0.023030845 -0.031798236
-0.036216836 -0.008294733 -0.026206693 0.042926837 0.035089534 0.0217891 -0.0014208305 -0.02772736
0.042101853 -0.019653058 -0.023825968 -0.017906329 0.026600378 0.016048495 0.023497518 0.0020240063
0.015660955 -0.038578566 -0.0117489025 -0.002780969 -0.017915228 -0.016148884 -0.045758523 -0.024228238
-0.011064309 0.0018878435 -0.0315957 -0.015987944 -0.0033140432 -0.040226012 -0.031388972 -0.024687188
0.008489347 -0.03841722 -0.03569823 -0.0025070952 -0.018441193 -0.012445283 -0.021460295 -0.0118931625
-0.03960753 0.010443856 0.008837994 -0.031132283 0.009585194 -0.010376145 -0.009238171 -0.04051288
-0.03648087 -0.016494604 0.021444496 -0.0023351314 0.0038983626 0.02936169 0.0023619258 0.03972297
0.023120208 0.03822159 0.045367043 0.04122347 0.03542353 0.04092469 -0.04153461 0.00664219
0.03982074 -0.042449072 -0.0016479248 -0.0248635 0.032241225 -0.026702758 -0.029503407 -0.010623479
0.045155197 -0.021267448 -0.046218403 -0.037449572 -0.034838554 -0.012435764 0.03992106 0.031504605
0.007043481 0.030908884 -0.004017626 0.040435005 0.016236033 -0.039469518 0.037304614 0.00963066
0.0061672 0.03026934 0.020724643 -0.014835399 -0.015336884 0.020802716 0.0016060194 0.04447048
0.02270937 0.03897778 -0.02455475 0.03172186 0.01675979 -0.01672717 0.011584215 0.044382993
-0.027797941 -0.034889426 -0.040262997 -0.041199915 -0.021360893 -0.016181162 0.009344885 -0.0134771485
0.042828273 0.03500389 0.018460806 -0.03359611 -0.007200387 -0.036998127 0.005607706 -0.0061193546
0.023562018 -7.040092e-05 0.04186011 0.00087751634 0.032737166 0.011713306 -0.026941743 0.027062625
-0.04548264 -0.044433586 0.009805606 0.033806138 0.04417672 -0.024448738 0.04264963 -0.037824214
0.03977638 -0.0033619464 -0.043947145 -0.040467806 -0.000742238 -0.029598432 -0.011874562 0.04487774
0.045586955 -0.04072446 -0.01126613 0.0096474085 -0.02999263 -0.032264646 0.02494443 -0.03295265
-0.023273448 -0.0076099383 -0.028826393 -0.03876668 0.03824869 0.010597095 0.039069463 0.03020647
-0.0150486855 -0.0074436297 -0.042405277 0.035105262 -0.022660628 -0.02418874 -0.018169671 0.01699763
-0.02091673 0.020443024 -0.0011592145 -0.020133317 0.016067885 -0.0113033485 -0.01340314 0.038576085
0.04280734 -0.0061491216 0.043509994 -0.008665366 0.0004566417 -0.040992353 0.026304925 -0.04111234
-0.026309717 0.012963597 -0.019023918 -0.0065469383 0.0059008403 -0.0034121594 -0.019926257 -0.04199515
0.042409968 -0.03243849 -8.446974e-05 0.008226672 -0.041650523 -0.03491323 0.019483808 -0.03799555
-0.035277117 0.020666113 0.016116196 0.01877423 -0.0003465374 -0.025734713 -0.039129004 -0.022563323
-0.043255873 -0.043957658 0.01934939 0.002819018 -0.0023927526 0.02292264 0.046500903 -0.026273124
0.045057822 -0.0076147085 -0.02798857 -0.013473167 -0.01812504 0.015161704 0.029727343 -0.013850309

bias f4 [32]
00000000: 3fea 0bbd 7739 b4bd 4566 34bd 3c97 5fbc
00000010: 27c4 c8bd 0530 3e3d ca68 4bbd 3f9f dd3b
00000020: 8fed 34bb 6290 543c 6d4a 883c b252 623d
00000030: 2700 a43d 2bab 91bc 3222 1d3d 9cbc 01bc
00000040: 5004 9dbd dccd 6b3c 7f79 693d c18f 2ebd
00000050: 8a5d 25bd 95a6 553b 5255 db3c 8837 243d
00000060: acf3 ab3b bb67 5abb f88f aa3c 6e87 16bc
00000070: 1047 953d 4f9a 193b 504b ccbd 6ded 393d
-0.03415894 -0.08800023 -0.044042844 -0.013646897 -0.09803038 0.046432514 -0.04966048 0.0067633684
-0.0027607416 0.012973877 0.016637051 0.055254646 0.080078416 -0.017781815 0.03836269 -0.007918503
-0.07666838 0.014392342 0.057000633 -0.042617563 -0.04037241 0.0032600511 0.026774082 0.04009202
0.005247554 -0.0033325988 0.020820603 -0.009187562 0.07288945 0.0023437922 -0.09975302 0.045392442

weight f4 [32, 32, 5, 5]
00000000: 420f 04bc 15d5 413c cf09 80bc 796b d3bc
00000010: 93d0 a4bc 60c2 b8bc 5ad3 d9bc c0e8 e43c
00000020: 6ab1 f739 b97c a2bb c3b7 d83c eb26 393c
00000030: 238e e5bb 0a37 9cbb f8a3 c13c 7696 d6bc
00000040: de81 853b 5faa d1bc 6639 813c 29ba ef3c
00000050: 401e f3bc f2fd b8bc 9a20 ee3b 3a48 18bc
00000060: 90c2 933c e56e 6d3c 57ed 5e3a f618 f33c
00000070: 826c 2b3d a89b bd3c 4120 7fbb 7803 2a3b
00000080: 3c4d 653d 2a62 ad3c 707f b03c d52e 16ba
00000090: c3b1 bb3c c6f5 91bc e899 093d bbb3 08bd
000000a0: 5660 fe3b a3ed bc3c bd51 96ba 7bfe 0f3a
000000b0: 1562 b8bc 2f7c f8bc 1d4f be3c 4827 153a
000000c0: 74b7 0ebc 97c6 053c a4f0 8b3b fe95 b5bc
000000d0: 31f4 983c 7066 b63c fecd eabb 270b d33b
000000e0: 9163 26bc 5239 debc 374a d53c 6409 eebc
000000f0: cf6e 923c 0e88 f7bc 9a1f f63c 12ad 2bbb
00000100: 072b 0bbd 7103 e03c 540f c1bc 8f0d c13c
00000110: ea07 d7bc c7a0 653c 809d 9c3c 1fcc 1a3d
00000120: 3278 4a3c ebd8 0ebc 46ff e13c b990 113d
00000130: c6aa 2c3d 040b 5a3b 6c33 88bc f0c2 213d
00000140: d029 e0bb b6fb 1a3d 8145 37bd 13ac b0bc
00000150: 2bdd ad3b 2553 f13b 714b bbbc 3f77 f9bc
00000160: c0d3 79bc f253 4a3c 02af 52bc c03e 493c
00000170: 7e73 01bb d116 963b 8ad8 1d3c d93b 54ba
00000180: 9d5d 85bc 46de 703b be08 003d 0e72 00bd
00000190: 5ba3 c1bc 6448 223c f1e5 5dbc 8983 b13c
000001a0: 7413 0f3d b112 d23c 5f0a 243d ac6f f8bc
000001b0: c24f e4bc d621 f6bb dc96 a53c 6e82 113d
000001c0: a750 da3b 48c5 2abc f478 01bd 4153 11bd
000001d0: 27e2 5c3c faf7 31ba e12b a03c 5eec 2b3d
000001e0: 2d55 7f3c 5a40 e2bc e40e 7e3c 069e ac3b
000001f0: e7ff 153d cc18 65bc 510e be3b 07a0 a13b
00000200: 1034 d63c 11d4 a3bc 83fc 6a3c fe45 6a3c
00000210: 7436 45bc 779a 9dbc 65fe 25bd 8640 ed3c
00000220: 439f 703c 532a a53c 4294 97bc 423d 00bd
00000230: 5df6 263d 0955 9f3c 64c4 d13b 05b7 0c3c
00000240: 534e a2bc 4349 2a3d 02c1 6bba a6bf 12bd
00000250: 994e b639 bd89 2b3c beec 193d 3811 af3c
00000260: 941c 35bc f412 40bc b6ca 143c ad43 20bd
00000270: 3976 04bd 8b3c d3bc 2667 1a3c 914d ecbc
00000280: eff1 b3bc f784 593c 3511 a53b f76b 16bc
00000290: 24d8 473c 1bdc 893c 74a9 0bbc e1ba 87bc
000002a0: edce 153b 49a3 d33b 17e9 f8bc 0203 b73b
000002b0: a306 cdbc cbc8 eabc 70ed d73b be18 bdba
000002c0: beb1 2ebc 68a2 b0bc 0b8b c63b 9495 403c
000002d0: e1ee 4fbc 0235 d73b 34de 243c 8f0a 75bc
000002e0: c87e 47bc 5071 df3b b3ba f93b f194 8a3b
000002f0: 4d0b 24bc 8fce 6c3c 2ace 803b 465e 833b
00000300: 432d 01bd b563 5e3c 962f 40bc 7600 383b
00000310: f17a 833c e350 3f3b 33d6 eb3c 0d90 c2bb
00000320: c46b 16bd a535 10bc 5d54 acbc 0070 bbbb
00000330: 90d7 053d 586a 14bd 3ad0 fdbc 94cb b6bc
00000340: 4f3e 32bd ed12 a4bc e97e adbc 7c1c 22bd
00000350: a438 b4b9 fb99 76bc d272 87ba 8c55 93bb
00000360: 8adc 8b3c 4b9d 5b3c 397f 113d 889c 69bc
00000370: ccb1 3bbd 1a8f 70bb 8942 1b3c df2b 323d
00000380: c924 87bb b99a 9e3c bc44 033d 25ae ae3c
00000390: f9ec 4a3c 314c 353c cd24 9a3c 1e71 3a3c
000003a0: bc28 30bd 2802 893b 4cb9 533b 0396 8d3c
000003b0: dc65 103d 72ec b43c ab1a 62bb b08b 703c
000003c0: c35c d3bc fc75 d9bc 33aa 99bc 1bc7 34bc
000003d0: 2fd4 c53c d661 e1b9 9726 623c 7de0 be3c
000003e0: 691b 453d 67b0 cbbc a69c 343d aac8 a93c
000003f0: c486 dfbc ecab d8bc 66e9 95bc 25ee 803d
-0.008060278 0.011830588 -0.015629677 -0.025808083 -0.020118987 -0.022553623 -0.026590038 0.027943015
0.00047243695 -0.0049587158 0.026454812 0.011300783 -0.0070054694 -0.0047673034 0.023637757 -0.026194792
0.0040743193 -0.025593935 0.01577444 0.029263573 -0.02967751 -0.022582028 0.00726707 -0.009294564
0.01803711 0.014491771 0.00085039943 0.029674988 0.041851528 0.023145512 -0.0038929137 0.002594201
0.05598186 0.021164972 0.021545142 -0.00057290244 0.022911912 -0.01781739 0.033594042 -0.03337453
0.007762949 0.023062533 -0.0011468452 0.00054929376 -0.022507707 -0.030332653 0.023231084 0.0005689752
-0.008710731 0.008165023 0.00427063 -0.022166248 0.018671127 0.022265643 -0.0071656695 0.0064405384
-0.010155574 -0.027126942 0.026036365 -0.029057212 0.017875103 -0.030216243 0.030044366 -0.0026195687
-0.03397658 0.027345391 -0.02356688 0.023566036 -0.02624889 0.014015383 0.01911807 0.03779232
0.012357758 -0.008718709 0.027587544 0.03553841 0.04215505 0.0033270726 -0.016626082 0.039492548
-0.006840922 0.037837707 -0.04474402 -0.021566426 0.0053059063 0.007364648 -0.022863122 -0.030452369
-0.015248239 0.012349116 -0.012859108 0.012283027 -0.0019752677 0.0045803566 0.0096341465 -0.0008096076
-0.01627999 0.003675358 0.031258337 -0.03135877 -0.023637464 0.009904955 -0.013543592 0.021669166
0.03493066 0.025643678 0.040048953 -0.030326687 -0.027870063 -0.007511358 0.020213537 0.035524778
0.0066624465 -0.010423012 -0.03160949 -0.035479788 0.013481653 -0.00067889655 0.019552173 0.041973464
0.015584272 -0.027618576 0.01550648 0.0052678613 0.036621 -0.013982963 0.0058000465 0.004932407
0.026147872 -0.019998582 0.01434243 0.014298914 -0.012036908 -0.019238694 -0.040525813 0.028961431
0.014686408 0.020161783 -0.018503312 -0.03130842 0.040762294 0.019449728 0.0064015854 0.008588557
-0.019812739 0.041573774 -0.0008993299 -0.0358273 0.00034772305 0.010469851 0.03757929 0.021370515
-0.011054177 -0.011723269 0.009081533 -0.03912704 -0.03233931 -0.025785705 0.009424007 -0.02884558
-0.021965949 0.01327633 0.0050374516 -0.009181014 0.012197528 0.016828587 -0.0085242875 -0.016568603
0.0022858933 0.006458674 -0.030384583 0.0055850754 -0.025027579 -0.028660199 0.006589584 -0.0014426929
-0.010662494 -0.021561816 0.0060590557 0.011754412 -0.0126912305 0.0065675983 0.010062743 -0.014956131
-0.012176223 0.006818928 0.0076211332 0.004229181 -0.01001246 0.014453544 0.0039308267 0.004009041
-0.031537306 0.013573577 -0.011730095 0.0028076447 0.016049834 0.00291925 0.028788662 -0.0059375823
-0.036723867 -0.008801852 -0.021036321 -0.0057201385 0.03267628 -0.03623423 -0.03098308 -0.02231387
-0.043516453 -0.020028556 -0.02117868 -0.039577946 -0.00034374476 -0.01505136 -0.0010333902 -0.004496282
0.017072935 0.013404201 0.03552172 -0.014258511 -0.045823857 -0.003670639 0.009476312 0.04349887
-0.004124258 0.019360887 0.032047972 0.021323273 0.0123856 0.011065529 0.018816376 0.011379508
-0.043007597 0.0041811652 0.003230649 0.017283445 0.03525339 0.022085402 -0.0034500759 0.014681742
-0.025801068 -0.026545517 -0.018757915 -0.011033799 0.024149029 -0.00042988238 0.013803146 0.023300404
0.048121843 -0.024864389 0.044094704 0.020725567 -0.027285941 -0.026449166 -0.01829977 0.062954225

bias f4 [32]
00000000: eafa 1c3c b19f 223d f6ad 06bd 55c4 bb3d
00000010: e434 72bd 3af8 1dbd a248 b03c d36e 963d
00000020: e980 8bbd 69f4 5e3d 7c36 bebb 6dd4 c43b
00000030: b405 d23c 8a31 e2bc c175 d33b e6e4 9cbc
00000040: 883b 003d ce65 dcbb 223b 3fbd 4cef 303d
00000050: 81aa 33bd a92f e0bc 34ea f1bb 2bd5 9c3b
00000060: f084 9cbc 6528 0abd e15f fcbc ffe6 bf3d
00000070: dc79 fc3c 5442 843b d052 f1bc b318 0e3b
0.009581307 0.039703075 -0.032880746 0.09168307 -0.05913247 -0.038566805 0.021519009 0.07345357
-0.06811697 0.054432306 -0.005804835 0.0060067684 0.025637485 -0.027611513 0.0064532463 -0.019152116
0.031306773 -0.0067260033 -0.046687253 0.04319696 -0.043863777 -0.027366476 -0.0073826555 0.004786154
-0.019106358 -0.03372993 -0.030807437 0.09370231 0.030819826 0.0040362272 -0.029458433 0.0021682202

weight f4 [13, 1152]
00000000: 021b 223d 1cb6 3ebd 7e6a 30bc d367 39bc
00000010: d14f 63bc fa4a dabc 98b1 05bb 7120 79bc
00000020: 64a3 6d3c 3508 6bbb 3dad 24bd de88 45bd
00000030: aa22 cd3a 47bc 35bd 04f6 16bd 0f65 7cbc
00000040: cd73 d4bc 377f 83bc 0bcb c83a 9dfe f53c
00000050: 474e 92bc 07f0 44bd 9298 98bc 2e79 19bc
00000060: a904 1d3d 4aaf 463c 1ecc a23c 07e7 223c
00000070: 5c20 383c 2589 513c 70b2 51bb 5449 18bd
00000080: f09f a6bc 8e1a f8bc 9be8 15bd aab7 67bd
00000090: 97cb 84bc c687 00bc d6f5 11bd cd78 3cbd
000000a0: 1b0f b2bc a43e 0e3b 3337 bb3c 844c 173d
000000b0: 8e55 013d 3f31 a63c a9aa a73c ba6e 02bd
000000c0: ec82 013d b9ee 003d c705 82bc e698 9939
000000d0: 60f8 babb d05c 3bbd 6bda 043c 0fdf 253d
000000e0: 0baf 05bc fa1b cb3b 86ed 033c f2d6 0eba
000000f0: 3a48 97ba e170 ab3c 724e fe3c e110 bf3c
00000100: 0baf 273c 0773 8bbd 2624 75bc 5bad e4bc
00000110: 741f cbbc 0550 d13c a862 153d f762 7d3d
00000120: 2483 1d3c 9a29 b63a fa6a c63c ced0 4d3c
00000130: 4209 f93b 6ea1 543d db4b 313b 9f59 d13b
00000140: 1f78 413d 8d78 423b 32de 943b 2855 adbc
00000150: 4035 a13c a50f bdbc 1e45 c43c 84ba f93c
00000160: 3f05 37bc 6a97 9d3c bbd2 4e3c 58b2 b3bc
00000170: c48f 5c3a f8f8 293d ada7 853d a059 dd3c
00000180: bf08 9dbc 3371 c5bc 52d5 3b3c 5c40 633c
00000190: dec7 fa3b 3a21 f03b 5601 213b 49a7 b93b
000001a0: cb38 443c 63cb bb3b 6485 033d 9c07 2d3d
000001b0: b522 eebb d535 583d 38c5 473d 1727 903c
000001c0: 58be 053d 9022 b83c 0641 203d 276a 533d
000001d0: 8001 35bb aaf3 903c a0c2 6a3d 331c 0e3d
000001e0: 81ad 793c c29d 023d 69c4 693c c9e4 bc3c
000001f0: 896d a03b c1ec 633c 627e 8cbc 6252 79bd
00000200: 6978 253b de3f 70bc 61bd 1f3c 018d 4d3b
00000210: 2b07 e43c 2c07 7c3c bba8 e83c 5ad8 1f3d
00000220: d8f5 423b a316 afbb a34f e23b 8596 9c3b
00000230: 67bb 723b 7124 8fbb 6d7c 063d 1d01 043d
00000240: 979c f2ba 44b3 a9bc 84e3 12bd 3221 eabc
00000250: 9062 35bd acd6 3f3c ff4f d73a 543a 0cbd
00000260: ad3c 56bb 7f76 9abc 32b0 94bb 9fb5 e6bc
00000270: 8675 c03c 309d bf3c 07f1 b1bb 93a2 0fbd
00000280: 1a08 c9bc 9294 84bc e99f 0fbb bcb5 68bb
00000290: 8647 fabc 90d3 3abd c573 0dbc 4cb6 d2bc
000002a0: 21b9 7e3d 5f9c abb9 e1ac 2f3d 24bb ec3b
000002b0: e94e dc3b bf5e b8bc d99e 483d 3aed 7abb
000002c0: 9544 423d 0ea7 063d 5b59 083d 3699 1a3d
000002d0: 77c0 7e3c 5153 cf3c a8e1 9fbc 3514 68bc
000002e0: a84d 4abc 854f a83a f9b5 b03c 32c5 833c
000002f0: 19e4 9bbc a73d eabc 9f9a 1fbd 2790 dd3c
00000300: f50c 06bd b585 dbbc 117d c5bb 5196 53bd
00000310: cd93 e2bc ad8a 8a3d d37c a2bc 8590 31bc
00000320: ef20 6dbc 3f89 a53b da6b 0dbd 6a4d a5bc
00000330: 427a 3c3d ec60 0b3c 03c9 293c 4303 76bb
00000340: 4ced 2ebc e942 373d f79a 4e3d 8ed7 08bd
00000350: 6051 ffbc edec ce3c 53c5 dd3c 1b9e 0b3d
00000360: d68b 8bbc 7e7b b33b 7d16 7bbc b53f af3c
00000370: d046 aab8 fc60 4f3d b93b 84bc e9fe b8bc
00000380: 0e85 45bd d4ee 8dbb 8ac1 10bd 89f0 853c
00000390: 65cc 4abc 7c56 84bc 4663 6bbc ad57 813c
000003a0: 5140 32bd f6de 92bc c764 89bc f83a 2d3d
000003b0: 6b72 5cbc 0c51 f03b b31b cdbc 7fde 53bd
000003c0: b3b9 66bb 4902 493b 1697 81bc 74c9 383c
000003d0: ffd9 dd3a af87 9f3c 9ef0 c93b 6dcf ca3b
000003e0: 860c 52bc ac7b 3a3c 23c8 05bd 83c2 0abd
000003f0: a35e 4fbd 4f1b 07bd a4dd 063c 96bb c2bb
0.039576538 -0.04656039 -0.010767577 -0.0113162575 -0.01387401 -0.02664708 -0.0020400044 -0.015205489
0.014504287 -0.0035863046 -0.040204275 -0.04822623 0.001565059 -0.04436901 -0.036855713 -0.015404954
-0.025934124 -0.016051872 0.0015319301 0.030028636 -0.017859591 -0.04808047 -0.018627439 -0.00936727
0.038334522 0.012126753 0.019872721 0.0099427765 0.011238184 0.012789045 -0.0031997226 -0.037179306
-0.020339936 -0.0302861 -0.036598783 -0.05657164 -0.01621036 -0.007844871 -0.035634838 -0.046013642
-0.021735718 0.0021704817 0.02285347 0.036938205 0.031575732 0.020287154 0.02046712 -0.03184388
0.031618997 0.031477664 -0.015871895 0.00029296352 -0.005705878 -0.04574281 0.0081087155 0.04049593
-0.008159409 0.0061984034 0.0080522355 -0.00054488995 -0.0011541911 0.020927848 0.031043265 0.023323478
0.010234605 -0.06809049 -0.014962232 -0.027914694 -0.024795271 0.025550852 0.03647104 0.06186196
0.009613786 0.0013897896 0.024220932 0.01256199 0.0075999806 0.051911764 0.002705327 0.0063888575
0.047233697 0.0029673905 0.0045430893 -0.02115877 0.019678712 -0.023078749 0.023958739 0.030484445
-0.011170684 0.019237239 0.012623484 -0.021935627 0.0008413757 0.0414972 0.06526122 0.027020276
-0.01916921 -0.02410183 0.011464434 0.013870325 0.0076532206 0.0073281797 0.0024567447 0.005665694
0.011976431 0.0057310327 0.032109633 0.042243585 -0.007267321 0.052785713 0.048772067 0.017596764
0.03265223 0.022477418 0.03912451 0.051614907 -0.0027619302 0.017694313 0.057314515 0.03469486
0.01523912 0.03188873 0.014268019 0.023058312 0.00489587 0.013911427 -0.017150108 -0.060869582
0.0025248772 -0.014663665 0.009749741 0.0031364562 0.02783545 0.015382569 0.02840077 0.03902469
0.0029748585 -0.0053432747 0.006906466 0.0047786855 0.003703797 -0.004368358 0.032833505 0.032227624
-0.0018509802 -0.020715363 -0.035861507 -0.028580282 -0.04428345 0.011708897 0.0016427039 -0.034235314
-0.0032689974 -0.018855331 -0.0045376057 -0.028162776 0.02349354 0.023390383 -0.005430344 -0.035067152
-0.024539996 -0.016184125 -0.0021915382 -0.0035508713 -0.030551683 -0.045611918 -0.008633559 -0.025721692
0.06218827 -0.00032732167 0.04288948 0.0072244573 0.006723274 -0.022506116 0.048979614 -0.003828837
0.047428686 0.03287416 0.03328834 0.03774377 0.015548817 0.025308283 -0.019516781 -0.014164974
-0.012347616 0.0012841081 0.021571146 0.016085241 -0.019029664 -0.028593851 -0.038965818 0.027046276
-0.0327272 -0.026797155 -0.006026872 -0.051657025 -0.027658368 0.067647316 -0.019834911 -0.010837679
-0.014473184 0.0050517614 -0.034526683 -0.020178515 0.04601503 0.008506995 0.010362866 -0.0037538565
-0.010676693 0.044741545 0.050440755 -0.033408694 -0.031166732 0.02525946 0.02707163 0.034086328
-0.017034452 0.005477368 -0.015325186 0.021392683 -8.1194215e-05 0.0506296 -0.01614176 -0.022582488
-0.048222594 -0.004331449 -0.035340823 0.016350048 -0.012377833 -0.01615452 -0.01436693 0.015788877
-0.04351837 -0.017928582 -0.016771687 0.042292565 -0.013455014 0.0073338803 -0.025037622 -0.05172586
-0.00352059 0.0030671528 -0.015819114 0.011278499 0.001692593 0.019473879 0.006162717 0.006189278
-0.012820369 0.011382025 -0.03266157 -0.033876907 -0.050627362 -0.032985028 0.008231554 -0.005942772

bias f4 [13]
00000000: c9b8 00bc 86e9 fd3c 3935 9bbb 2ed7 88bd
00000010: 0cef 2cbd a496 54bc 4011 37bd 8d9f 2c3b
00000020: 65e8 9e3c def1 9d3d ae3d 40bd 712c 78bd
00000030: c99d 013e
-0.007856556 0.030995142 -0.0047365692 -0.06681667 -0.04222016 -0.012975369 -0.044694185 0.0026340217
0.019397924 0.07712148 -0.046933822 -0.060589258 0.12657847
